src/models/fnist_no_boot_bag.pt (torch, 407835 bytes, 4 tensors)

linear_stack.0.weight f4 [128, 784]
0	0xbe169970	-0.1470697
1	0x3dbb933e	0.091589436
2	0x3de6bdef	0.11266696
3	0x3e07e8b1	0.13272358
4	0xbd019a26	-0.031641148
5	0xbca4c6f4	-0.0201144
6	0xbe82c3a1	-0.25539878
7	0xbe40c984	-0.18826872
8	0x3af8ba4d	0.001897642
9	0x3d20d6f0	0.03926748
10	0xbe41373e	-0.1886873
11	0xbd7b9a8e	-0.06142669
12	0x3e118523	0.14210944
13	0xbcbbbb79	-0.022916542
14	0xbcc36527	-0.023851944
15	0x3d43f07b	0.047836762
16	0xbd502982	-0.050820835
17	0xbe33e408	-0.17567456
18	0xbc834362	-0.016023342
19	0xbd11c621	-0.03558934
20	0xbd6fe584	-0.058568493
21	0xbe6110e1	-0.21979095
22	0xbdec1634	-0.115276724
23	0x3d2db596	0.042409502
24	0x3eb2d5a0	0.34928608
25	0x3e6f8dd5	0.23393948
26	0x3e0e7661	0.13912345
27	0x3e1ca41e	0.1529698
28	0x3d296468	0.04135552
29	0xbd856f29	-0.06515343
30	0x3e415107	0.18878566
31	0x3bcf6332	0.0063289637
32	0x3d8dd59a	0.06925507
33	0xbde67891	-0.11253465
34	0xbd2e25c5	-0.04251649
35	0x3d158464	0.03650321
36	0x3d0594f7	0.032612767
37	0xbe0d1c0c	-0.1378023
38	0xbd9a745c	-0.07541725
39	0x3c636752	0.013879614
40	0x3ca32bc1	0.019918324
41	0xbd31005f	-0.043213245
42	0xbd0b67a6	-0.034034394
43	0x3dad2f26	0.084562585
44	0xbd4ed7c0	-0.050498724
45	0xbdff32e2	-0.12460877
46	0xbe06e43f	-0.13173006
47	0xbd8b280f	-0.0679475
48	0x3df6ec5f	0.12056803
49	0xbcc4b015	-0.024009744
50	0xbd5d3f6d	-0.054015566
51	0x3c993d77	0.018706067
52	0x3ea634a2	0.3246203
53	0x3eaa3608	0.33244348
54	0x3e2795ae	0.16365692
55	0x3e10c027	0.141358
56	0xbd8a8f62	-0.06765629
57	0xbe34ca0f	-0.17655204
58	0x3d35e4ef	0.04440778
59	0x3d0d3ee3	0.0344838
60	0xbbe3d56a	-0.006952931
61	0x3d7220cb	0.059113305
62	0xbdbe8908	-0.093034804
63	0xbd1d49bb	-0.038400393
64	0xbc81a672	-0.015826438
65	0xbd434162	-0.047669776
66	0xbc85e2b3	-0.01634345
67	0x3bf74111	0.0075455983
68	0x3cbf2c5c	0.023336582
69	0x3d86a050	0.06573546
70	0x3da0399e	0.078234896
71	0x3db08f57	0.0862109
72	0xbba3d06c	-0.004999211
73	0x3d11fb92	0.035640307
74	0xbd5320ee	-0.051545076
75	0x3a24209c	0.00062609627
76	0xbcd01857	-0.025402231
77	0x3ab1aed6	0.0013556133
78	0x3d42216e	0.047395162
79	0xbc8a3a93	-0.016873633
80	0x3e0e177d	0.13876148
81	0x3def1df4	0.11675635
82	0x3ddbe283	0.10736563
83	0x3e235d02	0.15953448
84	0xbe7afa3a	-0.24509516
85	0xbdf731fd	-0.120700814
86	0x3df82a19	0.121174045
87	0x3ccc073c	0.024905793
88	0xbdb898e0	-0.090135336
89	0xbd833a82	-0.06407644
90	0xbd87234a	-0.06598528
91	0xbc3a19ea	-0.011358717
92	0x3cc388ff	0.023869036
93	0x3da7ae0a	0.08187492
94	0xbd37aea5	-0.04484429
95	0xbdd843c2	-0.10559799
96	0x3d238be3	0.03992833
97	0x3d19ce90	0.03755051
98	0xbb9c28ac	-0.0047655907
99	0x3c969095	0.018379489
100	0xbc96a919	-0.018391179
101	0xbd4de803	-0.05027009
102	0xbd6db579	-0.058034394
103	0x3e03a2ac	0.12855023
104	0x3d404a32	0.04694576
105	0x3d18ab4c	0.037272736
106	0xbda2fc57	-0.07958286
107	0x3cb282a8	0.021790817
108	0x3db3e04a	0.08783014
109	0x3e4765ef	0.19472478
110	0x3e036316	0.12830767
111	0x3e227baf	0.15867494
112	0xbdcac51a	-0.099008754
113	0xbd6d45be	-0.05792784
114	0x3bd61888	0.006533686
115	0x3d2686f7	0.040656056
116	0xbcdebbdd	-0.02718919
117	0xbc95f23f	-0.018303989
118	0xbcc8079a	-0.024417687
119	0xbb5eac76	-0.0033977306
120	0xbd39b5e0	-0.045339465
121	0x3b63374d	0.0034670413
122	0xbcdcdfc1	-0.026962163
123	0xbd067913	-0.03283031
124	0x3d2012d9	0.039080475
125	0x3d51afec	0.051193163
126	0x3d9cdb94	0.07659069
127	0x3daa8862	0.08326794
128	0x3a9df966	0.0012052476
129	0xbd85aee9	-0.06527502
130	0xbd063368	-0.03276387
131	0x3cc25edd	0.023726875
132	0xbd2ae5aa	-0.04172293
133	0x3c9e09cc	0.01929178
134	0x3d812a95	0.0630695
135	0xbc8379b9	-0.016049253
136	0x3dae35af	0.08506333
137	0x3e3a540a	0.18196121
138	0x3dccfcd9	0.10009164
139	0x3bdc075f	0.006714746
140	0xbc5ce37d	-0.013481972
141	0x3bdeeead	0.0068033547
142	0xbcbe662a	-0.023242075
143	0xbda9e55d	-0.08295701
144	0x3db40f27	0.087919526
145	0xbcba0edf	-0.02271217
146	0xbce2f029	-0.027702408
147	0xbde414b7	-0.111367635
148	0xbda44ee2	-0.08022858
149	0xb8fe4355	-0.000121242054
150	0xbc4d62f3	-0.012535798
151	0xbbcefb4f	-0.0063165794
152	0xbc9902bb	-0.01867806
153	0x3cb64e08	0.022254005
154	0x3da5d0f1	0.08096493
155	0xbbe056cc	-0.0068462845
156	0x3c8ac53f	0.016939757
157	0xbba66cfe	-0.005078911
158	0xbc9d2d42	-0.01918662
159	0xbc83a226	-0.01606853
160	0xbd50d54f	-0.050984677
161	0xbd556220	-0.052095532
162	0x3d0d98d8	0.03456959
163	0x3bcd86ca	0.0062721716
164	0x3bc22475	0.005924756
165	0x3e265c64	0.16246182
166	0x3e1408f7	0.14456545
167	0x3d502531	0.05081672
168	0x3e0e8ffd	0.13922115
169	0x3e5c4a99	0.21512832
170	0x3c1edd47	0.009696311
171	0x3d2ee603	0.042699825
172	0xbc6619f4	-0.014044274
173	0x3ce1096e	0.027470317
174	0xbd074d49	-0.03303269
175	0xbd8b5959	-0.06804151
176	0x3cd494a9	0.025949793
177	0xbd4003e5	-0.046878714
178	0x3c20dd8a	0.009818444
179	0x3d9041b8	0.07043785
180	0xbcaa8abb	-0.020818105
181	0x3d35ce4c	0.044386193
182	0x3dbc86a1	0.09205366
183	0xbc98ba69	-0.018643575
184	0x3d0f9ac0	0.03505969
185	0x3b580fd1	0.0032968412
186	0x3d1a5bff	0.03768539
187	0x3d326aac	0.04355876
188	0xbd81ec2a	-0.06343873
189	0xbd205101	-0.03913975
190	0xbb5e9653	-0.0033964112
191	0x3cffaf53	0.03121153
192	0x3ce7e309	0.028306501
193	0x3e33658b	0.17519204
194	0x3dde247b	0.10846802
195	0x3db724b3	0.08942547
196	0x3eb110b6	0.34583062
197	0x3cd99959	0.02656238
198	0x3da159e5	0.07878474
199	0x3d104f5d	0.035231937
200	0x3d000d3a	0.031262614
201	0x3cdc6e07	0.026907934
202	0xbd90b264	-0.07065275
203	0xbd0435c9	-0.032277856
204	0x3b9d6948	0.0048038103
205	0xbd9d7d47	-0.076899104
206	0xbd7f0082	-0.062256344
207	0x3cf4d66a	0.029887397
208	0xbd42fe27	-0.04760566
209	0x3a9980bc	0.001171134
210	0x3ba6816a	0.0050813453
211	0xbc861613	-0.016367948
212	0xbb9f586b	-0.004862835
213	0xbc3ce0b1	-0.01152818
214	0x3c91c2ee	0.017793145
215	0x3d8ef973	0.069811724
216	0xbd41f6a4	-0.047354355
217	0xbc76860c	-0.015046608
218	0xbcb65e00	-0.02226162
219	0x3d410d29	0.04713169
220	0x3e15b844	0.14621073
221	0x3e2b4c7d	0.16728397
222	0x3e1cc4f1	0.15309502
223	0x3d119af5	0.03554817
224	0x3e48df98	0.19616544
225	0xbd1123bf	-0.03543448
226	0x3da4dd0d	0.080499746
227	0x3db4d5a5	0.08829812
228	0x3d94643a	0.07245679
229	0x3d547e4b	0.051878255
230	0x3cb0a945	0.021565089
231	0x3d88198c	0.06645498
232	0xbbe957c0	-0.0071210563
233	0xbce455be	-0.027872916
234	0xbc18fe19	-0.009337925
235	0x3c2c68a7	0.010522998
236	0xbd6d55e7	-0.05794325
237	0x3ce9b4df	0.028528629
238	0x3cb8aca9	0.022543268
239	0x3ca4076c	0.02002307
240	0xbcb07336	-0.021539312
241	0xbc97a284	-0.01851011
242	0x3d1e3716	0.038626753
243	0x3cf3dfab	0.02976974
244	0x3c13cece	0.009021474
245	0x3b418348	0.0029527713
246	0x3d282572	0.041051336
247	0x3d296469	0.041355524
248	0x3dcdd96c	0.100512356
249	0x3dbc08b3	0.09181347
250	0x3d750063	0.059814822
251	0x3c06b10d	0.008220923
252	0x3e5efb67	0.2177559
253	0xbdbd18c6	-0.09233241
254	0x3d1c9632	0.038229175
255	0x3de8dd69	0.11370356

linear_stack.0.bias f4 [128]
0	0x3d35c5da	0.04437814
1	0xbe48a6d6	-0.19594893
2	0x3da2cb71	0.079489596
3	0xbe753ebf	-0.23949717
4	0x3e76ab1b	0.24088709
5	0x3eb2ed23	0.34946546
6	0x3e9950e5	0.2994453
7	0x3c21b1d4	0.009869058
8	0xbeccb876	-0.39984483
9	0xbe81f510	-0.2538228
10	0xbe1aec93	-0.15129308
11	0xbdc9394d	-0.098253824
12	0x3e71ca80	0.23612404
13	0xbea93c2d	-0.33053723
14	0x3e96b6cd	0.2943634
15	0x3e95335d	0.2914075
16	0x3e8dad85	0.27671447
17	0x3d8dc689	0.06922633
18	0xbe72ad65	-0.23698957
19	0xbe44a010	-0.19201684
20	0xbc7d51ef	-0.015461429
21	0x3ea0e0ca	0.314215
22	0x3e7d2e35	0.24724658
23	0xbe8b6f81	-0.27233508
24	0xbe02d1a5	-0.12775286
25	0xbe6a9e28	-0.22911894
26	0x3db7d337	0.08975833
27	0xbe9fb927	-0.31195948
28	0xbdca1a84	-0.09868339
29	0x3dd81adb	0.10551997
30	0x3e8a7c8e	0.27048153
31	0x3edcd9e2	0.4313498
32	0xbebc813d	-0.3681735
33	0xbc39db6f	-0.011343821
34	0xbdc8fb48	-0.09813553
35	0xbe221493	-0.15828161
36	0x3d79bf60	0.060973525
37	0xbdd6660c	-0.10468683
38	0x3e95e723	0.29277906
39	0x3ecac60b	0.3960422
40	0x3df759ae	0.12077652
41	0x3de112a4	0.109898835
42	0x3e2f75da	0.171348
43	0xbe9a5fd4	-0.30151236
44	0xbe8ac83f	-0.271059
45	0xbde6871e	-0.1125624
46	0xbe936695	-0.287892
47	0xbe42d74d	-0.19027443
48	0x3d310142	0.04321409
49	0xbec4b643	-0.38420305
50	0x3e28ecbd	0.16496558
51	0xbdf15f4b	-0.11785754
52	0xbc65dccb	-0.014029692
53	0xbbf116b2	-0.007357442
54	0x3ebb5fd6	0.36596555
55	0x3deb5667	0.11491089
56	0xbda70298	-0.081547916
57	0x3e9c2a30	0.30500937
58	0xbe9eea57	-0.31038162
59	0x3d5ca337	0.05386659
60	0x3b8ab444	0.004232915
61	0x3e3c77cd	0.18405075
62	0x3e361d60	0.17784643
63	0xbe8e1a7f	-0.2775459
64	0x3e3be80b	0.18350236
65	0x3d7101e3	0.05883969
66	0x3e00f082	0.12591746
67	0xbc84a2c3	-0.016190892
68	0x3e1f04f6	0.15529236
69	0xbef92cad	-0.48666897
70	0xbdf53daf	-0.11974656
71	0xbdc9e959	-0.09858961
72	0x3e138df4	0.1440962
73	0xbcbfc323	-0.023408478
74	0x3df5baae	0.11998497
75	0x3df914b0	0.12162149
76	0x3d3e6729	0.0464851
77	0xbd3887b5	-0.045051295
78	0xbded1eea	-0.11578162
79	0x3d3e9f5c	0.046538696
80	0x3e3ebd00	0.18626785
81	0xbdffc4e9	-0.124887295
82	0x3e83770e	0.2567677
83	0xbc08031f	-0.008301525
84	0xbe2617c3	-0.16220002
85	0x3d66493d	0.05622219
86	0x3e85c2cd	0.26125184
87	0x3eb3336a	0.35000163
88	0xbd7c9ffd	-0.061676014
89	0xbe67a17c	-0.22620195
90	0x3ebca13e	0.36841768
91	0x3ea0ee95	0.31432024
92	0x3eeb66ae	0.45976776
93	0x3e88c45e	0.26712316
94	0xbe823d2b	-0.25437292
95	0x3e185ced	0.14879198
96	0xbd9097ed	-0.070602275
97	0xbde19a08	-0.11015707
98	0xbdeac894	-0.114640385
99	0xbd9d83a1	-0.07691122
100	0xbea38f0f	-0.31945083
101	0xbb81f260	-0.003965661
102	0x3cfddf54	0.03099028
103	0xbe863572	-0.2621265
104	0xbe0b1073	-0.13580494
105	0x3e10ffd3	0.14160089
106	0x3e513121	0.20428897
107	0xbe9d1953	-0.30683383
108	0xbe1b0474	-0.15138417
109	0xbd085c50	-0.03329116
110	0x3e7c8b6f	0.24662565
111	0xbc41d043	-0.011829439
112	0x3e541587	0.20711337
113	0xbe909001	-0.28234866
114	0x3bee844f	0.007278956
115	0xbe8bca88	-0.27302957
116	0xbe48d9ac	-0.19614285
117	0x3e1b49fc	0.15164942
118	0x3d605813	0.054771494
119	0x3e6189b0	0.2202518
120	0x3ca1250a	0.019670982
121	0x3de61496	0.11234395
122	0x3c1b8d22	0.009494098
123	0x3d0ef075	0.034897286
124	0xbe78d2cf	-0.24299167
125	0xbe5ad031	-0.21368481
126	0xbd721725	-0.059104104
127	0xbe2ffc12	-0.17186001

linear_stack.1.weight f4 [8, 128]
0	0x3dedd463	0.11612775
1	0x3d80153c	0.0625405
2	0x3ca16ca5	0.019705126
3	0x3cc4b1a3	0.024010485
4	0x3c91c110	0.017792255
5	0x3dbccb64	0.09218481
6	0x3d49a651	0.049230877
7	0x3d455f48	0.04818657
8	0xbd95b2e4	-0.07309511
9	0x3ccc6b9f	0.024953661
10	0x3da8e143	0.0824609
11	0xbd40f10a	-0.047104873
12	0xbc4213db	-0.011845554
13	0xbe033f2a	-0.12817064
14	0x3de5468b	0.11195096
15	0xbdc51ca3	-0.09624603
16	0xbbd239a1	-0.0064155613
17	0x3d186927	0.037209656
18	0xbb997281	-0.0046828394
19	0xbd1de1e3	-0.0385455
20	0x3d9e9197	0.07742613
21	0x3dd8d22a	0.105869606
22	0x3d9e85bf	0.07740354
23	0xbdee036c	-0.116217464
24	0xbd16c4d7	-0.036808815
25	0x3d68d9c0	0.056848288
26	0x3d2284f6	0.039677583
27	0xbd12b73a	-0.03581927
28	0xbd9fa9a8	-0.07796031
29	0x3dcb79e7	0.099353604
30	0xbc48c8d0	-0.012254909
31	0x3dd1311a	0.102144435
32	0xbe01a2c4	-0.12659746
33	0xbb10346e	-0.0022003907
34	0xbd5b846e	-0.05359309
35	0x3d98dab6	0.07463591
36	0xbd0a4005	-0.03375246
37	0x3dc764e4	0.0973604
38	0x3c8ded0f	0.017324952
39	0x3e031524	0.12801033
40	0x3c84da68	0.016217425
41	0xbddbdaf8	-0.10735124
42	0x3c4e4005	0.012588506
43	0xbdd92066	-0.10601883
44	0x3d7c403b	0.061584692
45	0xbd7ad965	-0.06124248
46	0xbd9e7876	-0.0773782
47	0xbdb9bc49	-0.09069116
48	0x3dbf8c62	0.09352948
49	0xbd484940	-0.04889798
50	0x3cdde984	0.027088888
51	0x3dcebc18	0.1009447
52	0xbcfb4c03	-0.030675894
53	0xbd1e805b	-0.038696628
54	0x3da75069	0.08169634
55	0xbdcc7f18	-0.09985179
56	0xbc4cd45c	-0.012501802
57	0x3ca8e8d9	0.020618843
58	0x3da44228	0.08020431
59	0xbd2b481d	-0.04181682
60	0xbcbf9d78	-0.023390517
61	0x3d1decaf	0.038555797
62	0x3d869dde	0.065730795
63	0x3d0577c6	0.032584928
64	0x3c8300e7	0.015991641
65	0xbd07692c	-0.033059284
66	0x3cc9f389	0.02465226
67	0xbda028e9	-0.07820303
68	0x3da349ce	0.079730615
69	0xbdeb698d	-0.114947416
70	0xbde172f3	-0.11008253
71	0xbdc80b8c	-0.097678274
72	0x3de5b43f	0.1121602
73	0xbd3ed8e9	-0.04659358
74	0x3b773554	0.0037720995
75	0xbd918d09	-0.071069784
76	0xbd20bb1b	-0.039240938
77	0x3d191d39	0.037381385
78	0x3dc74584	0.09730056
79	0xbcfcf9ad	-0.030880773
80	0x3d870763	0.06593206
81	0x3d4811d3	0.048845123
82	0x3d8f6252	0.07001175
83	0xbcbcebf7	-0.023061736
84	0xbd60c3ab	-0.054874104
85	0xbdbbba1c	-0.09166357
86	0x3d8b3f4b	0.067991816
87	0x3dc9abbe	0.0984721
88	0x3d0f9080	0.035049915
89	0x3dc938ec	0.0982531
90	0x3c739a35	0.014868309
91	0x3dc1823c	0.09448668
92	0x3d84890c	0.06471452
93	0x3d3b3a3c	0.045709834
94	0x3d5cab85	0.05387451
95	0x3d85fcb6	0.065423414
96	0xbda9beed	-0.08288369
97	0x3d75f179	0.06004474
98	0x399ad65e	0.00029532885
99	0xbd0e6e5e	-0.034773223
100	0x3da653de	0.08121465
101	0xbd9c7ea4	-0.07641342
102	0xbda28616	-0.07935731
103	0x3d95b943	0.073107265
104	0x3d02b9d6	0.03191551
105	0xbd262b8e	-0.04056888
106	0x3d1b7fe5	0.037963767
107	0xbd22e1cf	-0.03976613
108	0xbd8837cd	-0.06651268
109	0xbd9e3607	-0.07725149
110	0x3dc36dcb	0.09542426
111	0xbd1ff40f	-0.03905111
112	0xbda2155d	-0.07914231
113	0xbdc43472	-0.09580316
114	0x3d5c5fd5	0.05380233
115	0xba8ae404	-0.0010596518
116	0xbc028492	-0.007966178
117	0x3db78738	0.08961338
118	0x3ceb8ed8	0.028754637
119	0xbcb51435	-0.022104362
120	0x3d1b4c7e	0.037914746
121	0x3dbcec86	0.09224801
122	0x3d289030	0.041153133
123	0x3dc49511	0.09598745
124	0xbdefb4d9	-0.11704416
125	0xbd7ee094	-0.062225893
126	0xbdf9e146	-0.122011706
127	0xbd076f14	-0.033064917
128	0xbd8ff445	-0.070290126
129	0x3de0875e	0.10963319
130	0x3e49c359	0.19703425
131	0x3e02fa87	0.12790881
132	0xbe25d79b	-0.16195528
133	0xbe39d849	-0.18148912
134	0xbd52e828	-0.051490933
135	0xbdc6f722	-0.097151056
136	0x3db5ad4f	0.088709466
137	0xbe2c594e	-0.16830942
138	0x3d3e5241	0.046465162
139	0xbd6ff6ff	-0.058585163
140	0x3d925a1c	0.07146093
141	0x3e249a38	0.16074455
142	0xbe3fcc59	-0.18730296
143	0xbde5554d	-0.111979105
144	0xbe3bc033	-0.18335037
145	0xbe2a618f	-0.16638778
146	0xbdaac86c	-0.08339009
147	0x3b16c1be	0.0023003663
148	0x3e2d808d	0.1694357
149	0xbe8aa603	-0.27079782
150	0xbdd82f6c	-0.1055592
151	0x3de97ea3	0.11401107
152	0x3db26174	0.08709994
153	0xbe23bea4	-0.15990692
154	0xbdd6f3fa	-0.104957536
155	0x3e8f8543	0.28031358
156	0x3e0d4ef9	0.13799657
157	0x3cbd0619	0.023074197
158	0xbe5f0320	-0.21778536
159	0xbe60af9e	-0.21941993
160	0x3d09c461	0.033634547
161	0xbc01b187	-0.007915861
162	0x3d1be762	0.03806246
163	0xbe4d6a60	-0.2006011
164	0xbc629efb	-0.013831849
165	0x3e0fd155	0.14044698
166	0xbe3a5468	-0.18196261
167	0xbe53202d	-0.20617743
168	0x3d9833cb	0.07431754
169	0xbe253f38	-0.16137397
170	0xbcd00e20	-0.02539736
171	0xbc603fbf	-0.013687073
172	0x3e2301e0	0.15918684
173	0xbe1d7943	-0.15378289
174	0x3e03a61a	0.12856331
175	0x3e03c5a6	0.12868366
176	0x3d989575	0.07450382
177	0x3e2bb295	0.16767342
178	0x3e26f387	0.16303836
179	0xbd18ec09	-0.037334476
180	0x3cdb4f45	0.026771197
181	0xbddda3aa	-0.10822232
182	0x3b09bd4a	0.0021017366
183	0xbcb432ad	-0.02199682
184	0xbe0fd60c	-0.14046496
185	0xbe161c2c	-0.14659184
186	0x3e1ba85c	0.15200943
187	0xbd9f040b	-0.07764443
188	0x3df57ad7	0.119863205
189	0xbe88da46	-0.2672903
190	0x3e02ed70	0.12785888
191	0x3e3d9350	0.18513227
192	0x3d21a4fb	0.03946398
193	0x3dd5c7d2	0.10438503
194	0x3c3993e9	0.011326768
195	0xbe0f544c	-0.13997
196	0x3ac9b1a7	0.0015388028
197	0x3e9379c5	0.2880384
198	0x3db9f4e3	0.090799116
199	0x3d7b7395	0.061389524
200	0xbc7893f8	-0.015171997
201	0xbd6a2aef	-0.05716985
202	0x3e85fd4c	0.26169813
203	0x3e33bdac	0.17552823
204	0x3e262a2a	0.16227022
205	0xbd94fd5b	-0.07274886
206	0xbe7f86a2	-0.24953702
207	0xbd9cfa8c	-0.076649755
208	0xbe2a674e	-0.1664097
209	0x3e7321fd	0.23743434
210	0x3da318db	0.07963725
211	0xbe0ac3c7	-0.13551246
212	0x3d858ae0	0.06520629
213	0xbdb6ea68	-0.08931428
214	0xbe60e849	-0.2196361
215	0xbe0c1aaa	-0.13682047
216	0x3df3b334	0.11899415
217	0x3d99a8ab	0.07502874
218	0xbe7497cb	-0.2388603
219	0xbdd0d379	-0.10196585
220	0xbe02f87b	-0.127901
221	0xbe3284a9	-0.17433418
222	0x3e12227e	0.1427097
223	0xbd6db96a	-0.058038153
224	0xbcd09f89	-0.025466697
225	0x3e6af1d9	0.2294382
226	0xbdd435d0	-0.103618264
227	0xbde115e0	-0.109905005
228	0x3e0f24f5	0.13978942
229	0x3e416c06	0.18888864
230	0xbda919a7	-0.08256846
231	0x3de08ac4	0.109639674
232	0x3e08a875	0.13345511
233	0xbcc601ef	-0.024170844
234	0xbd445a65	-0.04793777
235	0xbe2ebdfa	-0.17064658
236	0x3bb6e2a1	0.0055812155
237	0x3dbfefee	0.09371935
238	0xbd19aeb5	-0.03752013
239	0x3d468394	0.048465326
240	0xbe2aeedd	-0.16692682
241	0x3e8c25be	0.27372545
242	0x3e1d5ece	0.15368196
243	0x3e18e2c4	0.14930254
244	0xbd8044b7	-0.06263106
245	0x3dbb4894	0.091447026
246	0xbe033e9e	-0.12816855
247	0x3e0b7888	0.13620198
248	0x3db9ddee	0.09075533
249	0x3e2f23df	0.17103527
250	0x3ddf03f1	0.10889424
251	0xbd9121bd	-0.07086513
252	0x3d9da039	0.07696576
253	0x3daaa2cf	0.083318345
254	0xbd770070	-0.06030315
255	0x3ddee752	0.108839646

linear_stack.1.bias f4 [8]
0	0x3d4b2063	0.049591433
1	0xbe58710d	-0.21136875
2	0xbc018308	-0.007904775
3	0x3e17374e	0.14767191
4	0xbec805e3	-0.3906699
5	0x3dfa0011	0.12207044
6	0x3e355871	0.17709519
7	0xbe48cf5e	-0.19610354
