src/models/linear_fashionmnist_holdout_[9]fol.pt (torch, 408449 bytes, 4 tensors)

input_layer.weight f4 [128, 784]
0.011480039 -0.0074928547 -0.042024408 0.0109710395 -0.0027737091 -0.049798746 0.005361115 0.0877485
0.040292915 0.06589273 0.11047268 0.16010168 -0.02832826 -0.035700064 0.014313351 -0.07712652
0.07787442 0.115882955 0.02609002 0.03636231 0.12652415 0.067936376 -0.037130464 -0.0025003625
0.001769869 -0.05555757 -0.042769987 -0.016824128 -0.042776786 0.0022842877 -0.02790527 0.0020244117
-0.055614665 -0.025861338 0.013895402 -0.050476387 -0.014392282 -0.010104827 0.0386023 0.0019031558
0.01707718 0.024652466 0.04423619 -0.055354003 0.05558564 0.034408666 0.03734006 -0.0028927615
0.009181016 0.048285924 0.007179494 -0.052491046 -0.051862165 -0.03692715 0.010250644 -0.008435311
0.0058126203 -0.039457876 0.010322625 0.0011053089 -0.012479204 -0.054542035 -0.022431113 -0.01692324
-0.008114992 0.013273576 -0.0107409675 0.027284086 -0.009692249 -0.017336085 0.023771768 -0.072691545
0.026888859 -0.00522779 -0.03489094 -0.056740273 -0.008185824 0.04790689 -0.011023648 -0.03425919
-0.011142237 -0.0105008725 -0.032363273 0.002297193 -0.025377708 -0.023682116 0.006474544 0.021085907
0.041211557 0.022703145 0.06699222 0.017954962 -0.021913357 0.012920376 0.06704312 0.04696116
0.007300784 -0.053421617 -0.026417244 -0.021612376 0.014651619 0.049937155 0.026762916 -0.07131017
-0.0704611 0.026993273 -0.010486316 -0.0050150286 -0.0074046436 -0.046988524 0.005961019 -0.028538605
-0.056546055 -0.019531745 0.009285072 0.0001381549 0.011916565 -0.014768807 0.10678005 0.033145
3.513218e-05 0.022292102 0.04466584 -0.0246956 -0.064357266 0.004363695 -0.0832895 -0.0295281
-0.025395868 0.021343231 0.07788311 -0.037370596 -0.031218538 -0.0028078526 -0.01245163 0.01872921
-0.017880948 -0.025169432 -0.008518746 -0.0042001433 0.0129258605 -0.0398179 -0.015587708 0.023085464
0.02441068 0.07581468 0.05656246 0.053709224 0.075200245 -0.006628839 -0.029414061 -0.02500042
0.0014424401 -0.016311971 0.011000691 -0.02272417 -0.03848733 0.034357842 0.079121634 0.0042160396
-0.038985554 -0.016655985 0.008469565 -0.037319895 -0.028712418 -0.078978635 -0.0377864 0.014839459
-0.031382434 -0.024961263 -0.019420946 -0.03878221 -0.011573709 0.03943934 0.06851555 0.061828453
0.039715692 0.006708786 0.026657484 -0.03271099 -0.049823694 -0.0335144 -0.020953663 -0.041085858
-0.0017422751 0.062418595 0.040290006 0.022502042 -0.08977253 -0.071671054 0.005964018 0.016172137
-0.09977275 -0.027793318 0.046088964 -0.008560825 -0.048680775 -0.01681306 -0.011885492 -0.011111821
-0.020992706 0.037796695 0.122986615 0.051109098 0.017631738 0.004320489 -0.0029203799 -0.078949265
-0.022432528 -0.037225083 -0.048871472 0.034488034 0.040405046 0.013090149 0.08530441 0.11044176
0.09984501 -0.032465167 0.0026052238 -0.02634951 -0.0404487 -0.04763973 0.013010389 -0.023277441
-0.0039454317 0.017625883 -0.018880613 0.008397551 0.027653128 0.052751876 0.06251841 0.060841653
0.09408853 0.02408528 0.018754581 -0.072849244 0.021439228 -0.0700485 -0.10986791 -0.114833936
0.010999722 0.10710611 0.03498383 -0.022341738 -0.030181013 -0.035609428 0.01021223 -0.045530062
-0.042776424 -0.047242437 -0.057860505 0.0030782467 0.0026832556 0.026255038 -0.019873042 0.026864769
00000000: c616 3c3c 9f86 f5bb c921 2cbd e0bf 333c
00000010: 1ec7 35bb c5f9 4bbd 4bac af3b 7cb5 b33d
00000020: 2f0a 253d c5f2 863d 803f e23d b2f1 233e
00000030: ab10 e8bc 3b3a 12bd 8c82 6a3c 82f4 9dbd
00000040: a07c 9f3d 0b54 ed3d bdba d53c a5f0 143d
00000050: 8c8f 013e 3a22 8b3d 1d16 18bd 1fdd 23bb
00000060: f3fa e73a 5690 63bd 952f 2fbd c1d2 89bc
00000070: b636 2fbd fdb3 153b 9899 e4bc feab 043b
00000080: 34cc 63bd 28db d3bc 8aa9 633c 54c0 4ebd
00000090: 9bcd 6bbc b78e 25bc 721d 1e3d 5073 f93a
000000a0: 71e5 8b3c f8f3 c93c 0231 353d e1ba 62bd
000000b0: c5ad 633d 1af0 0c3d e4f1 183d 7c94 3dbb
000000c0: f96b 163c 76c7 453d f641 eb3b da00 57bd
000000d0: 6c6d 54bd ec40 17bd 51f2 273c 4234 0abc
000000e0: cb77 be3b 959e 21bd 3a20 293c 03e0 903a
000000f0: 9375 4cbc 7867 5fbd 74c1 b7bc 9ba2 8abc
00000100: bef4 04bc 6a79 593c e2fa 2fbc e082 df3c
00000110: 3dcc 1ebc 6804 8ebc 03bd c23c 4edf 94bd
00000120: 0646 dc3c e24d abbb cde9 0ebd 7d68 68bd
00000130: d61d 06bc 043a 443d 889c 34bc 5d53 0cbd
00000140: ee8d 36bc da0b 2cbc 5a8f 04bd 818c 163b
00000150: e9e4 cfbc ff00 c2bc 6928 d43b 5abc ac3c
00000160: 73cd 283d f2fb b93c 3833 893d 4916 933c
00000170: a483 b3bc fcaf 533c e74d 893d 585a 403d
00000180: 6a3b ef3b a0d0 5abd fa68 d8bc 700c b1bc
00000190: 580d 703c e78a 4c3d e73d db3c 110b 92bd
000001a0: e94d 90bd ff20 dd3c ccce 2bbc 1c55 a4bb
000001b0: a7a2 f2bb 0a77 40bd a754 c33b cbc9 e9bc
000001c0: d69c 67bd 0a01 a0bc 6a20 183c acdd 1039
000001d0: b23d 433c def8 71bc 80af da3d 0dc3 073d
000001e0: e45a 1338 ed9d b63c 87f3 363d 6d4e cabc
000001f0: becd 83bd 54fd 8e3b af93 aabd eae4 f1bc
00000200: ff0a d0bc 00d8 ae3c 2e81 9f3d e911 19bd
00000210: 05be ffbc f303 38bb ec01 4cbc 006e 993c
00000220: 117b 92bc 2030 cebc 3692 0bbc 5ba1 89bb
00000230: fdc6 533c 1818 23bd 9663 7fbc ba1d bd3c
00000240: e8f8 c73c ba44 9b3d 0aae 673d 34fe 5b3d
00000250: 9602 9a3d bb36 d9bb c2f5 f0bc aecd ccbc
00000260: 4210 bd3a afa0 85bc 3e3c 343c 0a28 babc
00000270: e4a4 1dbd cfba 0c3d 860a a23d b426 8a3b
00000280: 51af 1fbd 2272 88bc eec3 0a3c bfdc 18bd
00000290: 4e36 ebbc 8dbf a1bd eac5 1abd 3421 733c
000002a0: de8a 00bd 907b ccbc ad18 9fbc 18da 1ebd
000002b0: a79f 3dbc 258b 213d e151 8c3d d53f 7d3d
000002c0: ecac 223d 60d5 db3b cc60 da3c f6fb 05bd
000002d0: ee13 4cbd 6546 09bd 04a7 abbc a549 28bd
000002e0: 0d5d e4ba a4aa 7f3d 2207 253d 3456 b83c
000002f0: a9da b7bd 46c8 92bd cf6d c33b 6e7b 843c
00000300: a855 ccbd d0ae e3bc c8c7 3c3d b442 0cbc
00000310: 7e65 47bd 8bbb 89bc 5ebb 42bc 5b0e 36bc
00000320: e5f8 abbc b5d0 1a3d 68e0 fb3d c657 513d
00000330: 6f70 903c e392 8d3b d863 3fbb 27b0 a1bd
00000340: 6cc4 b7bc 5479 18bd 742d 48bd 5343 0d3d
00000350: c37f 253d 1078 563c 14b4 ae3d 4a2f e23d
00000360: 8a7b cc3d 32fa 04bd 67bc 2a3b edda d7bc
00000370: 89ad 25bd e121 43bd 8729 553c 55b0 bebc
00000380: ae48 81bb 2864 903c 84ab 9abc e295 093c
00000390: d088 e23c 5a12 583d a709 803d 1935 793d
000003a0: 7db1 c03d 7e4e c53c 35a3 993c fc31 95bd
000003b0: 52a1 af3c 9775 8fbd 6d02 e1bd 0e2e ebbd
000003c0: 2e38 343c 735a db3d 344b 0f3d 0506 b7bc
000003d0: 2c3e f7bc 31db 11bd 3251 273c bb7d 3abd
000003e0: 5536 2fbd 4981 41bd 23ff 6cbd 69bc 493b
000003f0: 8fd9 2f3b ce14 d73c cacc a2bc 8113 dc3c

input_layer.bias f4 [128]
0.030349996 -0.013732613 0.036143687 0.08178886 0.014506582 0.028152324 0.06807117 0.069534376
0.0062668533 -0.010145005 0.042914785 0.019237623 -0.036951885 0.04600113 0.05203897 -0.003380476
0.011266062 -0.02383363 -0.04565686 -0.013463426 -0.037353452 -0.026849018 -0.042453162 -0.018595805
0.022190677 -0.011877997 0.03150295 -0.034489643 0.033607434 0.0109494515 -0.014891082 0.038335036
0.005044377 0.02061057 -0.038708474 0.034165125 0.0036334635 -0.030407188 0.039569423 0.0077653034
-0.02669238 0.014667266 -0.027550792 0.039093643 -0.0060720006 0.041577503 -0.0019997708 -0.014292925
-0.007439442 -0.012089748 0.011407434 0.0050987843 0.03884645 -0.041232895 -0.014411704 -0.027356474
-0.054446142 0.046721008 0.012882148 -0.051307492 0.02138702 -0.043920774 0.02234232 -0.028715774
-0.017280832 -0.03285623 0.009001413 0.0046588527 -0.026798112 -0.018440267 -0.03911039 0.025615247
0.01991437 0.0107304165 0.0129334545 -0.0016471725 -0.0062196287 -0.046486404 -0.05371715 0.027857868
0.018528374 0.0004248166 0.044321083 -0.010455839 -0.006525054 -0.034179203 0.024511572 0.0030301807
-0.0018866073 0.027414437 -0.020668715 0.025924891 -0.032808 -0.034990005 0.024528947 0.023779659
-0.041057214 -0.011008346 -0.007987913 0.06277795 -0.009279962 -0.00258868 0.0076910486 0.024751486
0.025037156 -0.012757149 0.021755714 -0.06590344 -0.039424933 -0.04026806 0.03247134 0.014361899
-0.019850746 -0.0070285406 0.024386037 0.025539778 0.04655141 -0.023830121 -0.021866964 0.038033806
-0.02393168 -0.02685475 0.024251869 -0.007423748 -0.03794555 -0.01846881 -0.04755654 -0.005177719
00000000: 8ea0 f83c c1fe 60bc 670b 143d eb80 a73d
00000010: 04ad 6d3c b49f e63c e668 8b3d 0a68 8e3d
00000020: 2d5a cd3b 3c37 26bc 6ac7 2f3d 3898 9d3c
00000030: dc5a 17bd ae6b 3c3d d126 553d fa8a 5dbb
00000040: 4a95 383c bf3e c3bc b002 3bbd b495 5cbc
00000050: efff 18bd 79f2 dbbc 5ee3 2dbd 3b56 98bc
00000060: 39c9 b53c ee9b 42bc 3d09 013d 0345 0dbd
00000070: f3a7 093d 5465 333c baf9 73bc 3305 1d3d
00000080: 4d4b a53b 80d7 a83c c78c 1ebd bbf0 0b3d
00000090: 671f 6e3b 7f18 f9bc 8c13 223d 1674 fe3b
000000a0: faa9 dabc f94e 703c 33b2 e1bc a820 203d
000000b0: a2f7 c6bb 2c4d 2a3d 960e 03bb df2c 6abc
000000c0: 90c6 f3bb 1414 46bc 3fe6 3a3c b413 a73b
000000d0: 751d 1f3d d3e3 28bd 111f 6cbc af1a e0bc
000000e0: eb02 5fbd 875e 3f3d a50f 533c ce27 52bd
000000f0: d533 af3c 45e6 33bd 3e07 b73c 583d ebbc
00000100: 8890 8dbc 4194 06bd aa7a 133c 4aa9 983b
00000110: b787 dbbc 0b10 97bc 3732 20bd 11d7 d13c
00000120: 7623 a33c a1ce 2f3c d7e6 533c f0e5 d7ba
00000130: 07ce cbbb 8768 3ebd 8406 5cbd 2f36 e43c
00000140: d1c8 973c ebb9 de39 068a 353d f84e 2bbc
00000150: 1fd0 d5bb 7eff 0bbd 7ecc c83c ff95 463b
00000160: 0948 f7ba 3e94 e03c 7051 a9bc 7060 d43c
00000170: ae61 06bd ae51 0fbd eef0 c83c 8fcd c23c
00000180: 9c2b 28bd 5a5c 34bc bcdf 02bc ba91 803d
00000190: fb0a 18bc d8a6 29bb 3105 fc3b a1c3 ca3c
000001a0: b91a cd3c 5c03 51bc 0a39 b23c 62f8 86bd
000001b0: 0a7c 21bd 1ff0 24bd ab00 053d 2c4e 6b3c
000001c0: 089e a2bc ac4f e6bb 3ac5 c73c cc38 d13c
000001d0: b1ac 3e3d 6337 c3bc 5922 b3bc 56c9 1b3d
000001e0: 5f0c c4bc 7efe dbbc dbab c63c e942 f3bb
000001f0: cb6c 1bbd e74b 97bc a6ca 42bd dba9 a9bb

output_layer.weight f4 [9, 128]
-0.043979447 -0.20429899 -0.1133611 -0.32466683 0.025794128 -0.2195122 -0.16406481 0.3371287
-0.13779628 -0.035398446 -0.049236245 -0.30057746 -0.086418584 0.23929606 0.28297535 0.05790657
-0.05452427 -0.20244262 0.20120725 -0.16912588 -0.021307657 -0.2742576 0.21122645 0.23869511
0.2835734 -0.2114052 0.12395234 0.29323313 0.21948051 -0.18247822 -0.07919314 0.41956654
-0.29646328 -0.3137601 0.083265245 -0.043879323 0.38449574 -0.064479314 0.11746947 -0.1673472
-0.14551556 0.06447705 0.1463256 -0.06573559 0.114885025 -0.1274537 0.075157136 -0.062003743
-0.12537938 -0.2900961 -0.25309187 -0.06942282 -0.2321787 -0.21003367 0.06841635 0.11106979
0.21178176 -0.26107815 -0.19124012 0.25987175 0.01943388 0.18837368 0.0584837 0.2070022
0.19234097 0.07801137 0.10653277 0.30946943 -0.21012153 -0.241198 0.24856178 -0.106021695
-0.11155877 0.24612574 0.1814618 -0.16578825 0.063232996 -0.08448788 -0.05695617 0.067955814
0.26086876 0.22567874 0.05868256 0.08177443 -0.1596597 -0.08654576 -0.02371136 -0.19290583
0.16353633 0.27857116 -0.0952257 -0.0854483 0.2034136 0.072817594 -0.025136312 0.1233545
0.11573269 -0.008274788 0.2181084 0.14052883 0.28809518 0.20033158 0.1552796 -0.0643994
-0.17184937 -0.24826637 -0.040756557 0.07025254 -0.061800092 0.28578848 -0.28850153 0.08700351
0.0019349081 -0.17732882 -0.20489573 -0.3195092 -0.06529605 -0.17354129 0.37063473 0.2914675
0.111063465 -0.3125194 0.021826126 -0.31573552 -0.21711127 -0.0058216783 0.085939616 -0.14151092
-0.15889281 -0.3269098 -0.041225392 -0.39647633 0.008309163 -0.11022394 -0.17908898 0.30505145
-0.078518495 0.005375973 -0.009460892 -0.2975564 -0.0020425457 0.22790493 0.26446465 0.08533729
0.008586434 -0.09603303 0.07366582 -0.34176433 -0.05794943 -0.2028182 0.2525601 0.35591057
0.2965428 -0.23561735 0.16608036 0.25903696 0.13409774 -0.29453075 -0.0598783 0.36743823
-0.20397538 -0.33590704 0.05769904 -0.030068103 0.45910013 -0.0884007 0.06474845 -0.118143484
-0.19830835 0.034372237 0.14394145 0.023209808 0.033046726 -0.19932295 0.031507853 -0.04810264
-0.07132491 -0.18339142 -0.19778553 -0.10111782 -0.23058009 -0.23133591 0.10908075 0.12971132
0.30930495 -0.21094519 -0.20344065 0.27705106 0.10973956 0.1700831 0.11273712 0.1245897
0.27287734 0.05035409 0.033984546 0.20397337 -0.0924929 -0.31501937 0.42449746 -0.105986156
-0.1387178 0.21910658 0.12360384 -0.28694847 0.024136018 -0.17418423 -0.008917999 0.099092476
0.2941599 0.115204155 -0.12655404 0.13529405 -0.14365849 0.065821685 -0.10343629 -0.11246419
0.18947351 0.2877118 -0.05308008 -0.04569311 0.3845572 0.0077680764 -0.035669085 0.17556348
0.105885714 0.07236688 0.20962502 0.14252977 0.33591604 0.30325225 0.014890302 0.0017549832
-0.13423164 -0.2590285 -0.14313106 0.09307602 -0.050565965 0.33892125 -0.36735836 0.048311125
-0.13492978 -0.2420503 -0.21250518 -0.22382976 -0.008409387 -0.28754234 0.3468868 0.36360618
0.006750109 -0.47787336 0.01900927 -0.39302486 -0.25752997 -0.086678885 0.08838083 -0.20106469
00000000: cb23 34bd c133 51be dd29 e8bd bb3a a6be
00000010: 354e d33c cec7 60be 9b00 28be 229c ac3e
00000020: 781a 0dbe f6fd 10bd f2ab 49bd 4ae5 99be
00000030: 3afc b0bd 070a 753e 25e2 903e 712f 6d3d
00000040: d754 5fbd 1e4d 4fbe 4609 4e3e 562f 2dbe
00000050: 658d aebc 7e6b 8cbe bf4b 583e 7e6c 743e
00000060: 8830 913e 9b7a 58be b9da fd3d a722 963e
00000070: 80bf 603e 92db 3abe 0330 a2bd 6dd1 d63e
00000080: 09ca 97be 2aa5 a0be f886 aa3d ceba 33bd
00000090: a0dc c43e bb0d 84bd d593 f03d 105d 2bbe
000000a0: 0802 15be 8b0c 843d 61d6 153e 62a0 86bd
000000b0: d748 eb3d 3983 02be fceb 993d a3f7 7dbd
000000c0: 7463 00be 7a87 94be 4295 81be 8d2d 8ebd
000000d0: 41c0 6dbe 1113 57be df1d 8c3d 8f78 e33d
000000e0: 51dd 583e 09ac 85be 73d4 43be e90d 853e
000000f0: cd33 9f3c 08e5 403e 9b8c 6f3d 62f8 533e
00000100: 08f5 443e 6dc4 9f3d da2d da3d c772 9e3e
00000110: 192a 57be 9cfc 76be fb86 7e3e e721 d9bd
00000120: ed78 e4bd 6308 7c3e 1fd1 393e 65c4 29be
00000130: 4d80 813d fb07 adbd df4a 69bd 6b2c 8b3d
00000140: 9790 853e 5418 673e 205d 703d 5a79 a73d
00000150: d57d 23be e73e b1bd 533e c2bc 1b89 45be
00000160: 1176 273e e1a0 8e3e b105 c3bd 85ff aebd
00000170: a84b 503e 6421 953d abea cdbc 49a1 fc3d
00000180: 4305 ed3d fa92 07bc cf57 5f3e cae6 0f3e
00000190: 3681 933e b923 4d3e 9e01 1f3e d5e3 83bd
000001a0: 48f9 2fbe 8a39 7ebe 59f0 26bd 90e0 8f3d
000001b0: 1822 7dbd de52 923e 79b6 93be e52e b23d
000001c0: be9c fd3a b095 35be 30d0 51be b696 a3be
000001d0: efb9 85bd cfb4 31be d6c3 bd3e 3a3b 953e
000001e0: 3e75 e33d 8b02 a0be b4cc b23c 16a8 a1be
000001f0: 6b52 5ebe c7c3 bebb 1c01 b03d 3de8 10be
00000200: ccb4 22be b960 a7be f5db 28bd f2fe cabe
00000210: 2823 083c 17bd e1bd 1a63 37be b42f 9c3e
00000220: 4ece a0bd ee28 b03b db01 1bbc 5059 98be
00000230: 3bdc 05bb e95f 693e e967 873e 51c5 ae3d
00000240: 1dae 0c3c f7ac c4bd 1bde 963d bcfb aebe
00000250: 625c 6dbd 93af 4fbe 8f4f 813e e939 b63e
00000260: 75d4 973e ad45 71be f810 2a3e 7ea0 843e
00000270: eb50 093e bccc 96be f342 75bd dd20 bc3e
00000280: ecde 50be 02fc abbe d455 6c3d 6251 f6bc
00000290: 2c0f eb3e 6d0b b5bd d69a 843d 36f5 f1bd
000002a0: 5811 4bbe e7c9 0c3d 6365 133e 7f22 be3c
000002b0: 015c 073d 511b 4cbe 610e 013d 4607 45bd
000002c0: cb12 92bd f6ca 3bbe 4a88 4abe dc16 cfbd
000002d0: 301d 6cbe 52e3 6cbe ba65 df3d 0bd3 043e
000002e0: 385d 9e3e 0402 58be bf52 50be a3d9 8d3e
000002f0: 22bf e03d 442a 2e3e b8e2 e63d e228 ff3d
00000300: 94b6 8b3e 1740 4e3d 6133 0b3d 65de 503e
00000310: eb6c bdbd 384a a1be bb57 d93e 450f d9bd
00000320: 0a0c 0ebe 7a5d 603e 0324 fd3d e9ea 92be
00000330: e6b8 c53c 5a5d 32be cd1c 12bc fff0 ca3d
00000340: 209c 963e 28f0 eb3d 6297 01be 868a 0a3e
00000350: 361b 13be 85cd 863d 68d6 d3bd a053 e6bd
00000360: 5805 423e f64e 933e 7f6a 59bd b328 3bbd
00000370: aee4 c43e 598b fe3b bf19 12bd eac6 333e
00000380: 9cda d83d 1635 943d f1a7 563e 53f3 113e
00000390: 30fd ab3e e143 9b3e 74f6 733c 7707 e63a
000003a0: 0574 09be 629f 84be f390 12be a49e be3d
000003b0: 421e 4fbd 1687 ad3e 6516 bcbe e3e1 453d
000003c0: 082b 0abe 09dc 77be f59a 59be a133 65be
000003d0: 87c7 09bc c038 93be 269b b13e 972a ba3e
000003e0: 0530 dd3b d1ab f4be 54b9 9b3c 8e3a c9be
000003f0: f8da 83be b384 b1bd 0201 b53d e7e3 4dbe

output_layer.bias f4 [9]
-0.2894559 -0.41108453 -0.2389907 -0.34483895 -0.29860443 -0.4443757 -0.29481828 -0.45367283
-0.13114956
00000000: 9033 94be ac79 d2be fab9 74be bb8e b0be
00000010: aee2 98be 3685 e3be 6cf2 96be ce47 e8be
00000020: 124c 06be
