src/models/linear_fashionmnist_holdout_[8]_swil.pt (torch, 408589 bytes, 4 tensors)

input_layer.weight f4 [128, 784]
000000 c6 16 3c 3c 9f 86 f5 bb c9 21 2c bd e0 bf 33 3c
       0.011480039 -0.0074928547 -0.042024408 0.0109710395
000010 1e c7 35 bb c5 f9 4b bd 4b ac af 3b 7c b5 b3 3d
       -0.0027737091 -0.049798746 0.005361115 0.0877485
000020 2f 0a 25 3d c5 f2 86 3d 80 3f e2 3d b2 f1 23 3e
       0.040292915 0.06589273 0.11047268 0.16010168
000030 ab 10 e8 bc 3b 3a 12 bd 8c 82 6a 3c 82 f4 9d bd
       -0.02832826 -0.035700064 0.014313351 -0.07712652
000040 a0 7c 9f 3d 0b 54 ed 3d bd ba d5 3c a5 f0 14 3d
       0.07787442 0.115882955 0.02609002 0.03636231
000050 8c 8f 01 3e 3a 22 8b 3d 1d 16 18 bd 1f dd 23 bb
       0.12652415 0.067936376 -0.037130464 -0.0025003625
000060 f3 fa e7 3a 56 90 63 bd 95 2f 2f bd c1 d2 89 bc
       0.001769869 -0.05555757 -0.042769987 -0.016824128
000070 b6 36 2f bd fd b3 15 3b 98 99 e4 bc fe ab 04 3b
       -0.042776786 0.0022842877 -0.02790527 0.0020244117
000080 34 cc 63 bd 28 db d3 bc 8a a9 63 3c 54 c0 4e bd
       -0.055614665 -0.025861338 0.013895402 -0.050476387
000090 9b cd 6b bc b7 8e 25 bc 72 1d 1e 3d 50 73 f9 3a
       -0.014392282 -0.010104827 0.0386023 0.0019031558
0000a0 71 e5 8b 3c f8 f3 c9 3c 02 31 35 3d e1 ba 62 bd
       0.01707718 0.024652466 0.04423619 -0.055354003
0000b0 c5 ad 63 3d 1a f0 0c 3d e4 f1 18 3d 7c 94 3d bb
       0.05558564 0.034408666 0.03734006 -0.0028927615
0000c0 f9 6b 16 3c 76 c7 45 3d f6 41 eb 3b da 00 57 bd
       0.009181016 0.048285924 0.007179494 -0.052491046
0000d0 6c 6d 54 bd ec 40 17 bd 51 f2 27 3c 42 34 0a bc
       -0.051862165 -0.03692715 0.010250644 -0.008435311
0000e0 cb 77 be 3b 95 9e 21 bd 3a 20 29 3c 03 e0 90 3a
       0.0058126203 -0.039457876 0.010322625 0.0011053089
0000f0 93 75 4c bc 78 67 5f bd 74 c1 b7 bc 9b a2 8a bc
       -0.012479204 -0.054542035 -0.022431113 -0.01692324
000100 be f4 04 bc 6a 79 59 3c e2 fa 2f bc e0 82 df 3c
       -0.008114992 0.013273576 -0.0107409675 0.027284086
000110 3d cc 1e bc 68 04 8e bc 03 bd c2 3c 4e df 94 bd
       -0.009692249 -0.017336085 0.023771768 -0.072691545
000120 06 46 dc 3c e2 4d ab bb cd e9 0e bd 7d 68 68 bd
       0.026888859 -0.00522779 -0.03489094 -0.056740273
000130 d6 1d 06 bc 04 3a 44 3d 88 9c 34 bc 5d 53 0c bd
       -0.008185824 0.04790689 -0.011023648 -0.03425919
000140 ee 8d 36 bc da 0b 2c bc 5a 8f 04 bd 81 8c 16 3b
       -0.011142237 -0.0105008725 -0.032363273 0.002297193
000150 e9 e4 cf bc ff 00 c2 bc 69 28 d4 3b 5a bc ac 3c
       -0.025377708 -0.023682116 0.006474544 0.021085907
000160 73 cd 28 3d f2 fb b9 3c 38 33 89 3d 49 16 93 3c
       0.041211557 0.022703145 0.06699222 0.017954962
000170 a4 83 b3 bc fc af 53 3c e7 4d 89 3d 58 5a 40 3d
       -0.021913357 0.012920376 0.06704312 0.04696116
000180 6a 3b ef 3b a0 d0 5a bd fa 68 d8 bc 70 0c b1 bc
       0.007300784 -0.053421617 -0.026417244 -0.021612376
000190 58 0d 70 3c e7 8a 4c 3d e7 3d db 3c 11 0b 92 bd
       0.014651619 0.049937155 0.026762916 -0.07131017
0001a0 e9 4d 90 bd ff 20 dd 3c cc ce 2b bc 1c 55 a4 bb
       -0.0704611 0.026993273 -0.010486316 -0.0050150286
0001b0 a7 a2 f2 bb 0a 77 40 bd a7 54 c3 3b cb c9 e9 bc
       -0.0074046436 -0.046988524 0.005961019 -0.028538605
0001c0 d6 9c 67 bd 0a 01 a0 bc 6a 20 18 3c ac dd 10 39
       -0.056546055 -0.019531745 0.009285072 0.0001381549
0001d0 b2 3d 43 3c de f8 71 bc 80 af da 3d 0d c3 07 3d
       0.011916565 -0.014768807 0.10678005 0.033145
0001e0 e4 5a 13 38 ed 9d b6 3c 87 f3 36 3d 6d 4e ca bc
       3.513218e-05 0.022292102 0.04466584 -0.0246956
0001f0 be cd 83 bd 54 fd 8e 3b af 93 aa bd ea e4 f1 bc
       -0.064357266 0.004363695 -0.0832895 -0.0295281
000200 ff 0a d0 bc 00 d8 ae 3c 2e 81 9f 3d e9 11 19 bd
       -0.025395868 0.021343231 0.07788311 -0.037370596
000210 05 be ff bc f3 03 38 bb ec 01 4c bc 00 6e 99 3c
       -0.031218538 -0.0028078526 -0.01245163 0.01872921
000220 11 7b 92 bc 20 30 ce bc 36 92 0b bc 5b a1 89 bb
       -0.017880948 -0.025169432 -0.008518746 -0.0042001433
000230 fd c6 53 3c 18 18 23 bd 96 63 7f bc ba 1d bd 3c
       0.0129258605 -0.0398179 -0.015587708 0.023085464
000240 e8 f8 c7 3c ba 44 9b 3d 0a ae 67 3d 34 fe 5b 3d
       0.02441068 0.07581468 0.05656246 0.053709224
000250 96 02 9a 3d bb 36 d9 bb c2 f5 f0 bc ae cd cc bc
       0.075200245 -0.006628839 -0.029414061 -0.02500042
000260 42 10 bd 3a af a0 85 bc 3e 3c 34 3c 0a 28 ba bc
       0.0014424401 -0.016311971 0.011000691 -0.02272417
000270 e4 a4 1d bd cf ba 0c 3d 86 0a a2 3d b4 26 8a 3b
       -0.03848733 0.034357842 0.079121634 0.0042160396
000280 51 af 1f bd 22 72 88 bc ee c3 0a 3c bf dc 18 bd
       -0.038985554 -0.016655985 0.008469565 -0.037319895
000290 4e 36 eb bc 8d bf a1 bd ea c5 1a bd 34 21 73 3c
       -0.028712418 -0.078978635 -0.0377864 0.014839459
0002a0 de 8a 00 bd 90 7b cc bc ad 18 9f bc 18 da 1e bd
       -0.031382434 -0.024961263 -0.019420946 -0.03878221
0002b0 a7 9f 3d bc 25 8b 21 3d e1 51 8c 3d d5 3f 7d 3d
       -0.011573709 0.03943934 0.06851555 0.061828453
0002c0 ec ac 22 3d 60 d5 db 3b cc 60 da 3c f6 fb 05 bd
       0.039715692 0.006708786 0.026657484 -0.03271099
0002d0 ee 13 4c bd 65 46 09 bd 04 a7 ab bc a5 49 28 bd
       -0.049823694 -0.0335144 -0.020953663 -0.041085858
0002e0 0d 5d e4 ba a4 aa 7f 3d 22 07 25 3d 34 56 b8 3c
       -0.0017422751 0.062418595 0.040290006 0.022502042
0002f0 a9 da b7 bd 46 c8 92 bd cf 6d c3 3b 6e 7b 84 3c
       -0.08977253 -0.071671054 0.005964018 0.016172137
000300 a8 55 cc bd d0 ae e3 bc c8 c7 3c 3d b4 42 0c bc
       -0.09977275 -0.027793318 0.046088964 -0.008560825
000310 7e 65 47 bd 8b bb 89 bc 5e bb 42 bc 5b 0e 36 bc
       -0.048680775 -0.01681306 -0.011885492 -0.011111821
000320 e5 f8 ab bc b5 d0 1a 3d 68 e0 fb 3d c6 57 51 3d
       -0.020992706 0.037796695 0.122986615 0.051109098
000330 6f 70 90 3c e3 92 8d 3b d8 63 3f bb 27 b0 a1 bd
       0.017631738 0.004320489 -0.0029203799 -0.078949265
000340 6c c4 b7 bc 54 79 18 bd 74 2d 48 bd 53 43 0d 3d
       -0.022432528 -0.037225083 -0.048871472 0.034488034
000350 c3 7f 25 3d 10 78 56 3c 14 b4 ae 3d 4a 2f e2 3d
       0.040405046 0.013090149 0.08530441 0.11044176
000360 8a 7b cc 3d 32 fa 04 bd 67 bc 2a 3b ed da d7 bc
       0.09984501 -0.032465167 0.0026052238 -0.02634951
000370 89 ad 25 bd e1 21 43 bd 87 29 55 3c 55 b0 be bc
       -0.0404487 -0.04763973 0.013010389 -0.023277441
000380 ae 48 81 bb 28 64 90 3c 84 ab 9a bc e2 95 09 3c
       -0.0039454317 0.017625883 -0.018880613 0.008397551
000390 d0 88 e2 3c 5a 12 58 3d a7 09 80 3d 19 35 79 3d
       0.027653128 0.052751876 0.06251841 0.060841653
0003a0 7d b1 c0 3d 7e 4e c5 3c 35 a3 99 3c fc 31 95 bd
       0.09408853 0.02408528 0.018754581 -0.072849244
0003b0 52 a1 af 3c 97 75 8f bd 6d 02 e1 bd 0e 2e eb bd
       0.021439228 -0.0700485 -0.10986791 -0.114833936
0003c0 2e 38 34 3c 73 5a db 3d 34 4b 0f 3d 05 06 b7 bc
       0.010999722 0.10710611 0.03498383 -0.022341738
0003d0 2c 3e f7 bc 31 db 11 bd 32 51 27 3c bb 7d 3a bd
       -0.030181013 -0.035609428 0.01021223 -0.045530062
0003e0 55 36 2f bd 49 81 41 bd 23 ff 6c bd 69 bc 49 3b
       -0.042776424 -0.047242437 -0.057860505 0.0030782467
0003f0 8f d9 2f 3b ce 14 d7 3c ca cc a2 bc 81 13 dc 3c
       0.0026832556 0.026255038 -0.019873042 0.026864769

input_layer.bias f4 [128]
000000 8e a0 f8 3c c1 fe 60 bc 67 0b 14 3d eb 80 a7 3d
       0.030349996 -0.013732613 0.036143687 0.08178886
000010 04 ad 6d 3c b4 9f e6 3c e6 68 8b 3d 0a 68 8e 3d
       0.014506582 0.028152324 0.06807117 0.069534376
000020 2d 5a cd 3b 3c 37 26 bc 6a c7 2f 3d 38 98 9d 3c
       0.0062668533 -0.010145005 0.042914785 0.019237623
000030 dc 5a 17 bd ae 6b 3c 3d d1 26 55 3d fa 8a 5d bb
       -0.036951885 0.04600113 0.05203897 -0.003380476
000040 4a 95 38 3c bf 3e c3 bc b0 02 3b bd b4 95 5c bc
       0.011266062 -0.02383363 -0.04565686 -0.013463426
000050 ef ff 18 bd 79 f2 db bc 5e e3 2d bd 3b 56 98 bc
       -0.037353452 -0.026849018 -0.042453162 -0.018595805
000060 39 c9 b5 3c ee 9b 42 bc 3d 09 01 3d 03 45 0d bd
       0.022190677 -0.011877997 0.03150295 -0.034489643
000070 f3 a7 09 3d 54 65 33 3c ba f9 73 bc 33 05 1d 3d
       0.033607434 0.0109494515 -0.014891082 0.038335036
000080 4d 4b a5 3b 80 d7 a8 3c c7 8c 1e bd bb f0 0b 3d
       0.005044377 0.02061057 -0.038708474 0.034165125
000090 67 1f 6e 3b 7f 18 f9 bc 8c 13 22 3d 16 74 fe 3b
       0.0036334635 -0.030407188 0.039569423 0.0077653034
0000a0 fa a9 da bc f9 4e 70 3c 33 b2 e1 bc a8 20 20 3d
       -0.02669238 0.014667266 -0.027550792 0.039093643
0000b0 a2 f7 c6 bb 2c 4d 2a 3d 96 0e 03 bb df 2c 6a bc
       -0.0060720006 0.041577503 -0.0019997708 -0.014292925
0000c0 90 c6 f3 bb 14 14 46 bc 3f e6 3a 3c b4 13 a7 3b
       -0.007439442 -0.012089748 0.011407434 0.0050987843
0000d0 75 1d 1f 3d d3 e3 28 bd 11 1f 6c bc af 1a e0 bc
       0.03884645 -0.041232895 -0.014411704 -0.027356474
0000e0 eb 02 5f bd 87 5e 3f 3d a5 0f 53 3c ce 27 52 bd
       -0.054446142 0.046721008 0.012882148 -0.051307492
0000f0 d5 33 af 3c 45 e6 33 bd 3e 07 b7 3c 58 3d eb bc
       0.02138702 -0.043920774 0.02234232 -0.028715774
000100 88 90 8d bc 41 94 06 bd aa 7a 13 3c 4a a9 98 3b
       -0.017280832 -0.03285623 0.009001413 0.0046588527
000110 b7 87 db bc 0b 10 97 bc 37 32 20 bd 11 d7 d1 3c
       -0.026798112 -0.018440267 -0.03911039 0.025615247
000120 76 23 a3 3c a1 ce 2f 3c d7 e6 53 3c f0 e5 d7 ba
       0.01991437 0.0107304165 0.0129334545 -0.0016471725
000130 07 ce cb bb 87 68 3e bd 84 06 5c bd 2f 36 e4 3c
       -0.0062196287 -0.046486404 -0.05371715 0.027857868
000140 d1 c8 97 3c eb b9 de 39 06 8a 35 3d f8 4e 2b bc
       0.018528374 0.0004248166 0.044321083 -0.010455839
000150 1f d0 d5 bb 7e ff 0b bd 7e cc c8 3c ff 95 46 3b
       -0.006525054 -0.034179203 0.024511572 0.0030301807
000160 09 48 f7 ba 3e 94 e0 3c 70 51 a9 bc 70 60 d4 3c
       -0.0018866073 0.027414437 -0.020668715 0.025924891
000170 ae 61 06 bd ae 51 0f bd ee f0 c8 3c 8f cd c2 3c
       -0.032808 -0.034990005 0.024528947 0.023779659
000180 9c 2b 28 bd 5a 5c 34 bc bc df 02 bc ba 91 80 3d
       -0.041057214 -0.011008346 -0.007987913 0.06277795
000190 fb 0a 18 bc d8 a6 29 bb 31 05 fc 3b a1 c3 ca 3c
       -0.009279962 -0.00258868 0.0076910486 0.024751486
0001a0 b9 1a cd 3c 5c 03 51 bc 0a 39 b2 3c 62 f8 86 bd
       0.025037156 -0.012757149 0.021755714 -0.06590344
0001b0 0a 7c 21 bd 1f f0 24 bd ab 00 05 3d 2c 4e 6b 3c
       -0.039424933 -0.04026806 0.03247134 0.014361899
0001c0 08 9e a2 bc ac 4f e6 bb 3a c5 c7 3c cc 38 d1 3c
       -0.019850746 -0.0070285406 0.024386037 0.025539778
0001d0 b1 ac 3e 3d 63 37 c3 bc 59 22 b3 bc 56 c9 1b 3d
       0.04655141 -0.023830121 -0.021866964 0.038033806
0001e0 5f 0c c4 bc 7e fe db bc db ab c6 3c e9 42 f3 bb
       -0.02393168 -0.02685475 0.024251869 -0.007423748
0001f0 cb 6c 1b bd e7 4b 97 bc a6 ca 42 bd db a9 a9 bb
       -0.03794555 -0.01846881 -0.04755654 -0.005177719

output_layer.weight f4 [9, 128]
000000 22 18 80 bd a5 f8 a7 ba ad 67 fe 3c 2d bd 5c bb
       -0.06254603 -0.0012815191 0.031055296 -0.0033682093
000010 4e 9a da 3c 2b b3 d5 3d 70 72 56 3d 55 bc 4a 3c
       0.026684906 0.10434564 0.05235523 0.012374003
000020 2f 84 b3 3d cc 19 bd 3c 42 8e 90 bd 7d 37 16 3d
       0.087654464 0.02308359 -0.070583835 0.03667401
000030 3a 57 27 3c 3c 49 cf bd 28 bc 75 3d 83 66 9c bd
       0.0102136675 -0.1012139 0.059993893 -0.0763674
000040 da fa 66 bc 91 9f a4 3c 53 5e 2d bd 90 55 cf 3d
       -0.014097894 0.020095618 -0.042326283 0.101237416
000050 32 10 af ba a0 40 6d bd a8 be a9 bd 62 9d 41 bd
       -0.0013356267 -0.05792296 -0.08288318 -0.047269233
000060 fd c8 81 3c da c2 12 bd 55 15 1e bd e8 6c 25 bd
       0.015842909 -0.035830356 -0.038594563 -0.040387064
000070 72 d6 6d bd 81 af 6e 3d da 88 9f bd f1 7f 9e 3d
       -0.05806584 0.058272842 -0.07789774 0.07739247
000080 2e 5a b2 3c 31 97 ab bd 27 84 06 bd 76 6d 1b bd
       0.021771517 -0.08378447 -0.032840874 -0.037946187
000090 f5 ec aa 3d d9 31 cb bd 11 19 cc bd 82 a2 0b bd
       0.08345977 -0.09921617 -0.099657185 -0.034090526
0000a0 47 97 73 3d 57 34 c5 3d 31 67 58 bd 9c f3 b8 3d
       0.05947044 0.09629124 -0.052832786 0.0903084
0000b0 70 a1 1d 3d 9b b3 94 3d a3 39 aa 3c bb ad 6a bd
       0.038484037 0.072608195 0.020779436 -0.05729459
0000c0 e6 c2 16 bd 37 8b b1 3c ce 2c e6 3b 26 2e 69 3d
       -0.036806963 0.021672828 0.007024384 0.056928776
0000d0 be 7e 7b bd cc 01 2c 3e 65 70 96 bc 73 d1 21 bd
       -0.061400168 0.1679756 -0.01836414 -0.039506387
0000e0 f8 cb 36 bd 48 eb 2d bd 5f 70 25 3d 49 34 04 bd
       -0.044628114 -0.04246071 0.04039037 -0.032276426
0000f0 34 3d 4d 3c ba 3c d6 3b 66 ba 41 3d 8d 39 00 be
       0.012526799 0.006538001 0.047296904 -0.12521954
000100 eb dd d0 bd b3 80 e2 bc a8 a5 98 bd 54 87 2f bd
       -0.101985775 -0.02764926 -0.074534714 -0.04285367
000110 ef 27 90 bd 44 6d 77 3d 95 98 09 bd 12 b8 90 3d
       -0.07038867 0.06040694 -0.03359278 0.070663586
000120 c7 8e 13 3d 80 3a d0 3d 6d e6 e0 bb b5 b2 51 3d
       0.036024835 0.10167408 -0.0068634064 0.05119582
000130 33 ee b1 bd 51 23 ea bb be 24 04 bd 6b ba 17 3d
       -0.08688011 -0.0071453233 -0.032261603 0.037043016
000140 07 ea 56 3c 27 ce cd 3b 1b 33 1e be 47 d6 13 bd
       0.01311732 0.006280679 -0.15449183 -0.036093023
000150 bb 05 d7 3b c6 13 1e bd 6c fc ff bc 4a 6c e3 3c
       0.0065619624 -0.038593076 -0.031248294 0.027761597
000160 f8 9b 3a bd b5 f4 c8 bc e3 2a 29 3d 70 bd 8d 3c
       -0.0455589 -0.024530748 0.041300666 0.017302245
000170 46 3b b1 bd 8f 8d 02 bc d9 2b 56 bd 91 0e 8b bd
       -0.08653884 -0.0079683205 -0.05228791 -0.06789888
000180 a3 3c bb bc 96 1e 40 3d 17 2a 18 3c d1 ee 81 3d
       -0.022856062 0.04690417 0.009287379 0.06344379
000190 61 b0 70 3a f1 b3 cf bc 25 7b 28 3d d1 a8 39 3d
       0.0009181556 -0.025354357 0.041133065 0.04532701
0001a0 fb 84 09 3c f5 5b 31 3c b9 66 bc bd d9 f5 19 bd
       0.008393521 0.010825147 -0.0919928 -0.037587974
0001b0 45 3f 15 3d 1a a2 a8 bd 0e 26 a2 3c ea 4f b4 3b
       0.03643729 -0.082340434 0.019793537 0.0055026906
0001c0 c2 b8 24 bd 09 f7 a2 3c a4 53 9b 3c 8f 43 cb 3d
       -0.04021526 0.019893186 0.018960781 0.09924995
0001d0 b7 d9 03 bd 59 bf 8d bd 02 93 75 3d e6 de b6 3d
       -0.03219005 -0.06921262 0.05995465 0.08929233
0001e0 ed 89 2b bd 77 0a 82 bd 15 c1 71 bd 99 a5 f2 bc
       -0.041879583 -0.06349652 -0.059022028 -0.029619979
0001f0 28 fd b0 bc 04 76 bb 3d 02 4f 61 bd d2 35 fa 3c
       -0.02160509 0.09153369 -0.05500699 0.030543242
000200 e7 b4 30 3d 39 ac 88 bd 26 22 39 3e be d4 b1 bd
       0.043141272 -0.06673474 0.18079433 -0.086831555
000210 98 62 d3 3d d3 eb 5b 3c 08 0e 56 bd e8 86 a7 3d
       0.1032154 0.013422924 -0.052259475 0.08180028
000220 4a 9e 1b bd 78 5b 00 be 92 28 3f bc 2e 73 a0 bd
       -0.037992753 -0.12534893 -0.011667388 -0.07834469
000230 bc a8 47 be 12 58 6d 3b 4e e6 74 3d d4 0f 2d be
       -0.19497961 0.0036215824 0.05978995 -0.16900569
000240 37 1b 0e bd ca 61 a4 bd 71 b0 42 bc 75 55 f0 bd
       -0.034693923 -0.08026464 -0.011882887 -0.1173505
000250 b4 16 0b be 48 b2 88 bd bb 2d aa bd d7 37 07 3e
       -0.1358288 -0.066746294 -0.08309504 0.13204895
000260 6b b3 bc 3d 55 70 36 be 06 12 3c 3d c6 dd 41 bd
       0.09213909 -0.17816289 0.045915626 -0.04733064
000270 55 ce 93 3d 37 88 8f bd 55 7a ec bc 2a 1a a6 3d
       0.07217089 -0.07008403 -0.028866926 0.08110459
000280 87 f7 50 bc 4c 19 f0 bd b1 96 1d 3b c1 47 13 bd
       -0.012754328 -0.11723575 0.0024046118 -0.0359571
000290 17 db 7f 3e 1f e6 60 bd dc ad 13 3d 69 10 97 bd
       0.2498592 -0.05490696 0.036054477 -0.07376177
0002a0 e3 0e a4 bd a0 59 ff 3b 11 1d 5c bd ae 4b b1 bd
       -0.08010652 0.0077926666 -0.053738657 -0.08657013
0002b0 a5 ba 51 bd 84 f8 2f be 1a 1a c4 bd fe 20 de bd
       -0.05120339 -0.17184645 -0.09575291 -0.108461365
0002c0 8a 14 2b be 17 ce db 3d cf e0 23 3d 71 bb 20 be
       -0.16707054 0.10732668 0.040009316 -0.15696503
0002d0 e0 ec 12 be c6 51 c4 3c c4 a4 de bd 75 08 44 3e
       -0.14348173 0.023964774 -0.1087127 0.19143851
0002e0 33 e3 fb 3d 0d 8e 71 be ac e4 0b 3d 7c 12 91 bc
       0.12299194 -0.23589344 0.034153625 -0.01770901
0002f0 b0 74 81 3c 12 f1 13 bb 0d 4c 1a 3d 46 04 43 be
       0.015802711 -0.002257411 0.037670184 -0.19044599
000300 5c c4 5a bd 3b ef 9a 3d 8f f1 14 3d 73 c2 9d bd
       -0.05340992 0.07565161 0.03636318 -0.07703104
000310 54 b0 a6 bd c5 79 7e be c6 82 23 3e 1d 74 0c be
       -0.08139101 -0.24851139 0.15967855 -0.13716169
000320 b6 b6 a1 bd 95 a4 96 bd ac 91 ee 3d e6 ac 23 be
       -0.078961775 -0.0735561 0.116488785 -0.15983924
000330 64 3a bf 3d 85 13 84 3d 49 75 7d bd e6 21 89 bd
       0.09337309 0.064490356 -0.06187943 -0.06695919
000340 b7 3f 37 3e 7e 32 b0 3d 55 f4 11 3e 08 be ee bd
       0.17895399 0.086033806 0.14253362 -0.11657339
000350 bb b3 88 be af 18 14 be 60 69 00 3d b0 0d fa 3d
       -0.26699623 -0.14462541 0.031350493 0.12209642
000360 5c 4a 03 3e 00 b9 29 3e 76 8b 98 3d 9f 1a aa 3d
       0.12821335 0.16574478 0.07448475 0.08305859
000370 22 4f 90 3d 19 a4 53 3d 4e b7 19 3d 2b 59 c7 3d
       0.070463434 0.051670168 0.03752833 0.09733804
000380 0b 70 ac bd 5b 8e 4b bd 98 a9 7a 3d 8c aa a2 3d
       -0.08419808 -0.049696308 0.061196893 0.079426855
000390 9c de 0c 3e cd 1f 99 3e df ca e4 3d 2f 23 bb bd
       0.13756794 0.29907075 0.11171507 -0.0913757
0003a0 5f 9f 76 3d df b2 81 be 68 3b 65 3d 2f 0c f2 bd
       0.060210582 -0.2533178 0.055964857 -0.1181873
0003b0 c4 f0 11 3e 8b a5 1b 3d 12 b4 b5 bd 30 c9 24 bc
       0.14252001 0.03799967 -0.08872236 -0.010057732
0003c0 1e 58 a0 3d e8 56 7a 3d b5 a8 a5 3d 2a ad eb 3d
       0.07829307 0.061118037 0.08088819 0.11507638
0003d0 78 88 86 bd 7d 41 57 bd e2 8b 31 3e b4 aa 1a 3e
       -0.06568998 -0.05255269 0.17338517 0.1510418
0003e0 aa 57 cd 3d de 00 6c be 94 98 a7 bc 99 6e 28 be
       0.10026486 -0.23047206 -0.020458497 -0.1644844
0003f0 d2 4b 1b be d1 ea 5a bd bc ad 04 be 63 b4 8d bd
       -0.15165642 -0.053446595 -0.129569 -0.06919172

output_layer.bias f4 [9]
000000 65 ec aa 3d 84 bb f4 bc 36 a3 48 3d a9 85 14 bd
       0.0834587 -0.02987457 0.048983775 -0.03626028
000010 ab 32 5b 3c 16 4e c4 bd 7d b5 18 3d 76 03 d8 bd
       0.013378779 -0.09585206 0.037282456 -0.10547535
000020 1b ec 49 3e
       0.19718973
