src/models/linear_fashionmnist_holdout_[8, 9].pt (torch, 407937 bytes, 4 tensors)

input_layer.weight f4 [128, 784]
000000 c6 16 3c 3c 9f 86 f5 bb c9 21 2c bd e0 bf 33 3c
       0.011480039 -0.0074928547 -0.042024408 0.0109710395
000010 1e c7 35 bb c5 f9 4b bd 4b ac af 3b 7c b5 b3 3d
       -0.0027737091 -0.049798746 0.005361115 0.0877485
000020 2f 0a 25 3d c5 f2 86 3d 80 3f e2 3d b2 f1 23 3e
       0.040292915 0.06589273 0.11047268 0.16010168
000030 ab 10 e8 bc 3b 3a 12 bd 8c 82 6a 3c 82 f4 9d bd
       -0.02832826 -0.035700064 0.014313351 -0.07712652
000040 a0 7c 9f 3d 0b 54 ed 3d bd ba d5 3c a5 f0 14 3d
       0.07787442 0.115882955 0.02609002 0.03636231
000050 8c 8f 01 3e 3a 22 8b 3d 1d 16 18 bd 1f dd 23 bb
       0.12652415 0.067936376 -0.037130464 -0.0025003625
000060 f3 fa e7 3a 56 90 63 bd 95 2f 2f bd c1 d2 89 bc
       0.001769869 -0.05555757 -0.042769987 -0.016824128
000070 b6 36 2f bd fd b3 15 3b 98 99 e4 bc fe ab 04 3b
       -0.042776786 0.0022842877 -0.02790527 0.0020244117
000080 34 cc 63 bd 28 db d3 bc 8a a9 63 3c 54 c0 4e bd
       -0.055614665 -0.025861338 0.013895402 -0.050476387
000090 9b cd 6b bc b7 8e 25 bc 72 1d 1e 3d 50 73 f9 3a
       -0.014392282 -0.010104827 0.0386023 0.0019031558
0000a0 71 e5 8b 3c f8 f3 c9 3c 02 31 35 3d e1 ba 62 bd
       0.01707718 0.024652466 0.04423619 -0.055354003
0000b0 c5 ad 63 3d 1a f0 0c 3d e4 f1 18 3d 7c 94 3d bb
       0.05558564 0.034408666 0.03734006 -0.0028927615
0000c0 f9 6b 16 3c 76 c7 45 3d f6 41 eb 3b da 00 57 bd
       0.009181016 0.048285924 0.007179494 -0.052491046
0000d0 6c 6d 54 bd ec 40 17 bd 51 f2 27 3c 42 34 0a bc
       -0.051862165 -0.03692715 0.010250644 -0.008435311
0000e0 cb 77 be 3b 95 9e 21 bd 3a 20 29 3c 03 e0 90 3a
       0.0058126203 -0.039457876 0.010322625 0.0011053089
0000f0 93 75 4c bc 78 67 5f bd 74 c1 b7 bc 9b a2 8a bc
       -0.012479204 -0.054542035 -0.022431113 -0.01692324
000100 be f4 04 bc 6a 79 59 3c e2 fa 2f bc e0 82 df 3c
       -0.008114992 0.013273576 -0.0107409675 0.027284086
000110 3d cc 1e bc 68 04 8e bc 03 bd c2 3c 4e df 94 bd
       -0.009692249 -0.017336085 0.023771768 -0.072691545
000120 06 46 dc 3c e2 4d ab bb cd e9 0e bd 7d 68 68 bd
       0.026888859 -0.00522779 -0.03489094 -0.056740273
000130 d6 1d 06 bc 04 3a 44 3d 88 9c 34 bc 5d 53 0c bd
       -0.008185824 0.04790689 -0.011023648 -0.03425919
000140 ee 8d 36 bc da 0b 2c bc 5a 8f 04 bd 81 8c 16 3b
       -0.011142237 -0.0105008725 -0.032363273 0.002297193
000150 e9 e4 cf bc ff 00 c2 bc 69 28 d4 3b 5a bc ac 3c
       -0.025377708 -0.023682116 0.006474544 0.021085907
000160 73 cd 28 3d f2 fb b9 3c 38 33 89 3d 49 16 93 3c
       0.041211557 0.022703145 0.06699222 0.017954962
000170 a4 83 b3 bc fc af 53 3c e7 4d 89 3d 58 5a 40 3d
       -0.021913357 0.012920376 0.06704312 0.04696116
000180 6a 3b ef 3b a0 d0 5a bd fa 68 d8 bc 70 0c b1 bc
       0.007300784 -0.053421617 -0.026417244 -0.021612376
000190 58 0d 70 3c e7 8a 4c 3d e7 3d db 3c 11 0b 92 bd
       0.014651619 0.049937155 0.026762916 -0.07131017
0001a0 e9 4d 90 bd ff 20 dd 3c cc ce 2b bc 1c 55 a4 bb
       -0.0704611 0.026993273 -0.010486316 -0.0050150286
0001b0 a7 a2 f2 bb 0a 77 40 bd a7 54 c3 3b cb c9 e9 bc
       -0.0074046436 -0.046988524 0.005961019 -0.028538605
0001c0 d6 9c 67 bd 0a 01 a0 bc 6a 20 18 3c ac dd 10 39
       -0.056546055 -0.019531745 0.009285072 0.0001381549
0001d0 b2 3d 43 3c de f8 71 bc 80 af da 3d 0d c3 07 3d
       0.011916565 -0.014768807 0.10678005 0.033145
0001e0 e4 5a 13 38 ed 9d b6 3c 87 f3 36 3d 6d 4e ca bc
       3.513218e-05 0.022292102 0.04466584 -0.0246956
0001f0 be cd 83 bd 54 fd 8e 3b af 93 aa bd ea e4 f1 bc
       -0.064357266 0.004363695 -0.0832895 -0.0295281
000200 ff 0a d0 bc 00 d8 ae 3c 2e 81 9f 3d e9 11 19 bd
       -0.025395868 0.021343231 0.07788311 -0.037370596
000210 05 be ff bc f3 03 38 bb ec 01 4c bc 00 6e 99 3c
       -0.031218538 -0.0028078526 -0.01245163 0.01872921
000220 11 7b 92 bc 20 30 ce bc 36 92 0b bc 5b a1 89 bb
       -0.017880948 -0.025169432 -0.008518746 -0.0042001433
000230 fd c6 53 3c 18 18 23 bd 96 63 7f bc ba 1d bd 3c
       0.0129258605 -0.0398179 -0.015587708 0.023085464
000240 e8 f8 c7 3c ba 44 9b 3d 0a ae 67 3d 34 fe 5b 3d
       0.02441068 0.07581468 0.05656246 0.053709224
000250 96 02 9a 3d bb 36 d9 bb c2 f5 f0 bc ae cd cc bc
       0.075200245 -0.006628839 -0.029414061 -0.02500042
000260 42 10 bd 3a af a0 85 bc 3e 3c 34 3c 0a 28 ba bc
       0.0014424401 -0.016311971 0.011000691 -0.02272417
000270 e4 a4 1d bd cf ba 0c 3d 86 0a a2 3d b4 26 8a 3b
       -0.03848733 0.034357842 0.079121634 0.0042160396
000280 51 af 1f bd 22 72 88 bc ee c3 0a 3c bf dc 18 bd
       -0.038985554 -0.016655985 0.008469565 -0.037319895
000290 4e 36 eb bc 8d bf a1 bd ea c5 1a bd 34 21 73 3c
       -0.028712418 -0.078978635 -0.0377864 0.014839459
0002a0 de 8a 00 bd 90 7b cc bc ad 18 9f bc 18 da 1e bd
       -0.031382434 -0.024961263 -0.019420946 -0.03878221
0002b0 a7 9f 3d bc 25 8b 21 3d e1 51 8c 3d d5 3f 7d 3d
       -0.011573709 0.03943934 0.06851555 0.061828453
0002c0 ec ac 22 3d 60 d5 db 3b cc 60 da 3c f6 fb 05 bd
       0.039715692 0.006708786 0.026657484 -0.03271099
0002d0 ee 13 4c bd 65 46 09 bd 04 a7 ab bc a5 49 28 bd
       -0.049823694 -0.0335144 -0.020953663 -0.041085858
0002e0 0d 5d e4 ba a4 aa 7f 3d 22 07 25 3d 34 56 b8 3c
       -0.0017422751 0.062418595 0.040290006 0.022502042
0002f0 a9 da b7 bd 46 c8 92 bd cf 6d c3 3b 6e 7b 84 3c
       -0.08977253 -0.071671054 0.005964018 0.016172137
000300 a8 55 cc bd d0 ae e3 bc c8 c7 3c 3d b4 42 0c bc
       -0.09977275 -0.027793318 0.046088964 -0.008560825
000310 7e 65 47 bd 8b bb 89 bc 5e bb 42 bc 5b 0e 36 bc
       -0.048680775 -0.01681306 -0.011885492 -0.011111821
000320 e5 f8 ab bc b5 d0 1a 3d 68 e0 fb 3d c6 57 51 3d
       -0.020992706 0.037796695 0.122986615 0.051109098
000330 6f 70 90 3c e3 92 8d 3b d8 63 3f bb 27 b0 a1 bd
       0.017631738 0.004320489 -0.0029203799 -0.078949265
000340 6c c4 b7 bc 54 79 18 bd 74 2d 48 bd 53 43 0d 3d
       -0.022432528 -0.037225083 -0.048871472 0.034488034
000350 c3 7f 25 3d 10 78 56 3c 14 b4 ae 3d 4a 2f e2 3d
       0.040405046 0.013090149 0.08530441 0.11044176
000360 8a 7b cc 3d 32 fa 04 bd 67 bc 2a 3b ed da d7 bc
       0.09984501 -0.032465167 0.0026052238 -0.02634951
000370 89 ad 25 bd e1 21 43 bd 87 29 55 3c 55 b0 be bc
       -0.0404487 -0.04763973 0.013010389 -0.023277441
000380 ae 48 81 bb 28 64 90 3c 84 ab 9a bc e2 95 09 3c
       -0.0039454317 0.017625883 -0.018880613 0.008397551
000390 d0 88 e2 3c 5a 12 58 3d a7 09 80 3d 19 35 79 3d
       0.027653128 0.052751876 0.06251841 0.060841653
0003a0 7d b1 c0 3d 7e 4e c5 3c 35 a3 99 3c fc 31 95 bd
       0.09408853 0.02408528 0.018754581 -0.072849244
0003b0 52 a1 af 3c 97 75 8f bd 6d 02 e1 bd 0e 2e eb bd
       0.021439228 -0.0700485 -0.10986791 -0.114833936
0003c0 2e 38 34 3c 73 5a db 3d 34 4b 0f 3d 05 06 b7 bc
       0.010999722 0.10710611 0.03498383 -0.022341738
0003d0 2c 3e f7 bc 31 db 11 bd 32 51 27 3c bb 7d 3a bd
       -0.030181013 -0.035609428 0.01021223 -0.045530062
0003e0 55 36 2f bd 49 81 41 bd 23 ff 6c bd 69 bc 49 3b
       -0.042776424 -0.047242437 -0.057860505 0.0030782467
0003f0 8f d9 2f 3b ce 14 d7 3c ca cc a2 bc 81 13 dc 3c
       0.0026832556 0.026255038 -0.019873042 0.026864769

input_layer.bias f4 [128]
000000 8e a0 f8 3c c1 fe 60 bc 67 0b 14 3d eb 80 a7 3d
       0.030349996 -0.013732613 0.036143687 0.08178886
000010 04 ad 6d 3c b4 9f e6 3c e6 68 8b 3d 0a 68 8e 3d
       0.014506582 0.028152324 0.06807117 0.069534376
000020 2d 5a cd 3b 3c 37 26 bc 6a c7 2f 3d 38 98 9d 3c
       0.0062668533 -0.010145005 0.042914785 0.019237623
000030 dc 5a 17 bd ae 6b 3c 3d d1 26 55 3d fa 8a 5d bb
       -0.036951885 0.04600113 0.05203897 -0.003380476
000040 4a 95 38 3c bf 3e c3 bc b0 02 3b bd b4 95 5c bc
       0.011266062 -0.02383363 -0.04565686 -0.013463426
000050 ef ff 18 bd 79 f2 db bc 5e e3 2d bd 3b 56 98 bc
       -0.037353452 -0.026849018 -0.042453162 -0.018595805
000060 39 c9 b5 3c ee 9b 42 bc 3d 09 01 3d 03 45 0d bd
       0.022190677 -0.011877997 0.03150295 -0.034489643
000070 f3 a7 09 3d 54 65 33 3c ba f9 73 bc 33 05 1d 3d
       0.033607434 0.0109494515 -0.014891082 0.038335036
000080 4d 4b a5 3b 80 d7 a8 3c c7 8c 1e bd bb f0 0b 3d
       0.005044377 0.02061057 -0.038708474 0.034165125
000090 67 1f 6e 3b 7f 18 f9 bc 8c 13 22 3d 16 74 fe 3b
       0.0036334635 -0.030407188 0.039569423 0.0077653034
0000a0 fa a9 da bc f9 4e 70 3c 33 b2 e1 bc a8 20 20 3d
       -0.02669238 0.014667266 -0.027550792 0.039093643
0000b0 a2 f7 c6 bb 2c 4d 2a 3d 96 0e 03 bb df 2c 6a bc
       -0.0060720006 0.041577503 -0.0019997708 -0.014292925
0000c0 90 c6 f3 bb 14 14 46 bc 3f e6 3a 3c b4 13 a7 3b
       -0.007439442 -0.012089748 0.011407434 0.0050987843
0000d0 75 1d 1f 3d d3 e3 28 bd 11 1f 6c bc af 1a e0 bc
       0.03884645 -0.041232895 -0.014411704 -0.027356474
0000e0 eb 02 5f bd 87 5e 3f 3d a5 0f 53 3c ce 27 52 bd
       -0.054446142 0.046721008 0.012882148 -0.051307492
0000f0 d5 33 af 3c 45 e6 33 bd 3e 07 b7 3c 58 3d eb bc
       0.02138702 -0.043920774 0.02234232 -0.028715774
000100 88 90 8d bc 41 94 06 bd aa 7a 13 3c 4a a9 98 3b
       -0.017280832 -0.03285623 0.009001413 0.0046588527
000110 b7 87 db bc 0b 10 97 bc 37 32 20 bd 11 d7 d1 3c
       -0.026798112 -0.018440267 -0.03911039 0.025615247
000120 76 23 a3 3c a1 ce 2f 3c d7 e6 53 3c f0 e5 d7 ba
       0.01991437 0.0107304165 0.0129334545 -0.0016471725
000130 07 ce cb bb 87 68 3e bd 84 06 5c bd 2f 36 e4 3c
       -0.0062196287 -0.046486404 -0.05371715 0.027857868
000140 d1 c8 97 3c eb b9 de 39 06 8a 35 3d f8 4e 2b bc
       0.018528374 0.0004248166 0.044321083 -0.010455839
000150 1f d0 d5 bb 7e ff 0b bd 7e cc c8 3c ff 95 46 3b
       -0.006525054 -0.034179203 0.024511572 0.0030301807
000160 09 48 f7 ba 3e 94 e0 3c 70 51 a9 bc 70 60 d4 3c
       -0.0018866073 0.027414437 -0.020668715 0.025924891
000170 ae 61 06 bd ae 51 0f bd ee f0 c8 3c 8f cd c2 3c
       -0.032808 -0.034990005 0.024528947 0.023779659
000180 9c 2b 28 bd 5a 5c 34 bc bc df 02 bc ba 91 80 3d
       -0.041057214 -0.011008346 -0.007987913 0.06277795
000190 fb 0a 18 bc d8 a6 29 bb 31 05 fc 3b a1 c3 ca 3c
       -0.009279962 -0.00258868 0.0076910486 0.024751486
0001a0 b9 1a cd 3c 5c 03 51 bc 0a 39 b2 3c 62 f8 86 bd
       0.025037156 -0.012757149 0.021755714 -0.06590344
0001b0 0a 7c 21 bd 1f f0 24 bd ab 00 05 3d 2c 4e 6b 3c
       -0.039424933 -0.04026806 0.03247134 0.014361899
0001c0 08 9e a2 bc ac 4f e6 bb 3a c5 c7 3c cc 38 d1 3c
       -0.019850746 -0.0070285406 0.024386037 0.025539778
0001d0 b1 ac 3e 3d 63 37 c3 bc 59 22 b3 bc 56 c9 1b 3d
       0.04655141 -0.023830121 -0.021866964 0.038033806
0001e0 5f 0c c4 bc 7e fe db bc db ab c6 3c e9 42 f3 bb
       -0.02393168 -0.02685475 0.024251869 -0.007423748
0001f0 cb 6c 1b bd e7 4b 97 bc a6 ca 42 bd db a9 a9 bb
       -0.03794555 -0.01846881 -0.04755654 -0.005177719

output_layer.weight f4 [8, 128]
000000 a2 af 0c bd 39 e2 a1 3b 7c 5c 3c 3d 6a 8f 07 bd
       -0.034347184 0.004940298 0.045986637 -0.033095755
000010 5e 62 e5 3c 3b 59 34 3c 16 61 70 3d 0c b3 27 3d
       0.028001007 0.011007602 0.05868634 0.040942237
000020 34 0e 42 3d 02 16 ce ba de 42 43 bb a0 2a 8e bc
       0.047376826 -0.0015723112 -0.0029794495 -0.01735431
000030 8d 32 46 3b 60 7b 7d bc 79 4a 9a 3d 57 04 3a bc
       0.0030242533 -0.015471309 0.07533736 -0.011353574
000040 52 99 c1 3b c8 71 43 bc 0a 63 17 bd 1d ff 9c 3d
       0.00590817 -0.011928983 -0.036959685 0.076658465
000050 47 83 41 bc 78 7e 87 bd a6 a6 8a bc 4e 70 b8 bb
       -0.011811084 -0.06615919 -0.016925167 -0.005628622
000060 2f 86 db 3c 0b 56 f6 bc fa 22 82 3b d0 02 5d 3b
       0.026797382 -0.030070325 0.0039714547 0.00337236
000070 1a a9 b2 bc e5 ba 68 3d 73 b4 b0 bd 2a 78 9c 3d
       -0.02180915 0.05681886 -0.08628168 0.07640107
000080 97 88 67 bb 01 e6 8d bd 92 c9 27 bd 25 34 85 3b
       -0.0035329217 -0.069286354 -0.040963717 0.004065054
000090 6b d0 d1 3d d2 3c c8 bd 45 14 48 bd 14 0a 24 bc
       0.10244831 -0.097772256 -0.048847456 -0.010012168
0000a0 52 a6 96 3d 8d 18 bd 3d a6 06 90 bd d8 d0 cc 3d
       0.07355942 0.09233198 -0.07032518 0.10000771
0000b0 62 b5 1c 3d 55 44 8c 3d b7 b0 bc 3c c6 03 64 bd
       0.038258918 0.06848971 0.023033483 -0.05566766
0000c0 a0 b2 93 3c fb 2e c1 ba 0b b4 9a 3c c1 83 a4 3d
       0.018029511 -0.0014738733 0.01888468 0.080329426
0000d0 d7 65 27 bc e1 5d 2f 3d 6b 5b 1d bb 0e 65 59 bd
       -0.010217152 0.04281414 -0.0024010788 -0.05307489
0000e0 95 d7 d3 bb e2 13 5c bb 45 5b 20 bc c8 8e 19 bc
       -0.0064649084 -0.0033581187 -0.009787385 -0.009372421
0000f0 45 58 ab 3c 12 02 fb bb 3c 77 76 3d 69 a8 c0 3c
       0.020916114 -0.007660159 0.060172305 0.023517804
000100 81 1f 89 bc 20 a3 4b 3c 84 73 9e bc 13 fa 47 bc
       -0.016738655 0.012429029 -0.019342192 -0.012205618
000110 5e f4 bb bc 5e 60 4e ba ec 2d 72 bc 0e 34 a6 3d
       -0.022943672 -0.0007872636 -0.014781456 0.081153974
000120 f9 b5 76 3d c5 5b 76 3d 56 38 ec bb 88 e6 87 3d
       0.060232136 0.060146112 -0.007208864 0.06635767
000130 ec 26 66 bd c2 7a bd bc bd fe 31 bd fd fe 53 3d
       -0.056189463 -0.023129825 -0.043455828 0.051756848
000140 84 7b 0c 3d 75 10 fa 3b fe 8a de bc 70 a4 b3 3c
       0.03429748 0.0076313564 -0.027165886 0.021928996
000150 be af 24 3d 59 51 52 bb 12 f6 c4 bb 30 f0 05 3c
       0.040206663 -0.0032091944 -0.006010779 0.008174941
000160 28 76 58 bb c0 67 3e bc da 8e 4f bc b2 3c 6f 3c
       -0.003302941 -0.011621416 -0.012668336 0.014601873
000170 65 bb 72 bd 32 49 a1 bc 35 46 40 bd 0f 9f 28 bd
       -0.059260745 -0.019688223 -0.046941955 -0.041167315
000180 05 3a 27 bc 7e 98 e2 3b 79 08 c2 3c 14 0b 83 3d
       -0.010206704 0.006915151 0.02368568 0.06398597
000190 5c 56 18 3d b6 94 fa bc 3e 6b 1a 3d c4 00 49 3d
       0.037191734 -0.030588489 0.03769993 0.049072996
0001a0 77 0d c9 bc 14 3a d8 3c cb f2 be bd 68 6b be bc
       -0.024542553 0.026394881 -0.09323653 -0.023244575
0001b0 1b 7b 57 bd a3 78 49 3d c8 7d e4 bc 1a 90 45 3b
       -0.052607637 0.049187314 -0.027892008 0.0030145706
0001c0 88 01 08 bd 0b 16 96 bc 50 51 c6 3c 3d f7 89 3c
       -0.033204585 -0.018321058 0.024208695 0.016841525
0001d0 02 42 0e 3d a9 65 96 bd 47 b9 fd 3c b8 ce c0 3d
       0.03473092 -0.07343609 0.030972136 0.094144285
0001e0 f8 ab 66 bd 48 72 e0 3b 20 c5 bb 3b de 8b 23 bd
       -0.056316346 0.006849561 0.0057302862 -0.03992831
0001f0 42 23 79 bc d8 0a a8 3d f4 f3 0c bd 21 a5 d0 3c
       -0.01520616 0.08205193 -0.03441234 0.025469365
000200 a8 56 08 bc f5 5e 9c bd 87 b0 6f 3d 9c 5b 55 bd
       -0.008321442 -0.07635299 0.05851796 -0.05208932
000210 f8 f3 a4 3d a5 a7 12 3c 61 c3 22 bc 7f 47 d4 3d
       0.08054346 0.008951102 -0.009934277 0.10365199
000220 85 e6 44 3c bb a4 a8 bd 63 18 8d bc 0a 02 e7 bd
       0.012017851 -0.08234545 -0.017223543 -0.11279686
000230 32 cf 89 bc 0a 55 c5 bb 27 56 9c 3d d3 82 59 bd
       -0.016822431 -0.0060221003 0.0763362 -0.05310328
000240 35 ac f3 ba e2 b1 b0 bd fb ab c9 bd 3b 2d 56 bd
       -0.001859075 -0.086276785 -0.09847256 -0.05228923
000250 cb 9c d3 bd 17 25 95 bd 00 c2 fc 3b 14 b9 b1 3d
       -0.1033264 -0.07282465 0.0077135563 0.08677879
000260 16 b5 91 3d fb c6 bc bd 34 31 a1 3d 05 fe 88 bc
       0.071146175 -0.0921764 0.07870713 -0.016722688
000270 e0 4c 3f 3d 9d 30 1b bd d5 e9 96 3c 3e e1 9d 3d
       0.046704173 -0.037888158 0.018422047 0.07708977
000280 72 d9 18 bd 7b 6e 35 bd 54 a8 ba 3b f8 89 3b 3d
       -0.037316747 -0.044294816 0.005696336 0.045785874
000290 3f 5b 15 3e d4 a3 b4 3b f9 14 e7 3c d4 59 e4 bc
       0.14585589 0.005512694 0.028208243 -0.027874865
0002a0 ab 9e 44 bd d8 e2 02 3c 41 1e 0e bd 63 8b e4 3c
       -0.04800288 0.007988654 -0.03469682 0.027898496
0002b0 87 b2 4d bc 4f b5 97 bd d4 5d e0 bd b2 9d 98 bd
       -0.012554771 -0.07407629 -0.10955396 -0.07451953
0002c0 47 83 dc bd d4 21 0c 3d ad 70 fa 3c c3 09 84 bd
       -0.10767227 0.03421195 0.030571306 -0.064471744
0002d0 fe 02 9a bd 97 b6 38 3a e5 69 17 bd df 36 e6 3d
       -0.07520102 0.0007046251 -0.036966223 0.112409346
0002e0 5a ac 74 3d 7f c6 a4 bd 86 f2 2c bd 35 18 87 bc
       0.05973468 -0.080456726 -0.042223476 -0.016491035
0002f0 48 72 9a 3c 02 32 ee 3c 93 65 81 3d 99 13 7b bd
       0.018853322 0.02907658 0.06318202 -0.061297987
000300 b9 1e ce 3d 06 5e 93 3d f5 c7 e9 3c f2 a5 13 bd
       0.10064454 0.07195668 0.02853773 -0.03604693
000310 c9 8c 03 bd ca ae 8a bd 5e ba 09 3e a6 16 22 bd
       -0.032116685 -0.067716196 0.1345 -0.03957238
000320 ca fe 5b bd 28 76 ea 3c 5b 4d 83 3d b4 a1 d1 bd
       -0.053709783 0.028620794 0.06411239 -0.102359205
000330 f7 5f fc 3c 8a 02 88 3b 75 15 b7 bd 3d 88 9b bc
       0.030807478 0.0041506933 -0.089396395 -0.018985862
000340 ac 59 b2 3d c8 ba 0c 3c 4d 89 27 3d 91 ca b4 b9
       0.0870851 0.008589454 0.040902425 -0.000344832
000350 22 57 be bd eb 01 50 bd df e8 5e 3d b4 77 3e 3d
       -0.09293963 -0.05078308 0.054421302 0.046500877
000360 45 39 14 3e 61 f3 e4 3d 90 4b 0d bd e7 18 77 3d
       0.14474972 0.11179233 -0.03449589 0.060326483
000370 3d 76 10 3d fd 09 5b bc 26 95 82 3d 4f 30 a3 3c
       0.03526901 -0.013369081 0.06376104 0.019920496
000380 44 f7 f7 bc 25 ef 4b bc 1d 72 6d 3d ea b3 60 3d
       -0.030269273 -0.012447153 0.057970155 0.05485908
000390 d8 19 c4 3d 44 37 e3 3d 4f 4e c8 3d 66 96 14 bd
       0.09575242 0.110945255 0.09780561 -0.036276244
0003a0 40 c3 9b 3d 6e fe 02 be db 75 2c 3d 81 a4 c8 bd
       0.076056 -0.1279237 0.042104583 -0.09797002
0003b0 26 31 27 3d 5e 00 cd 3d 9e 21 a1 bd e7 53 0e bb
       0.040818356 0.10009836 -0.0786774 -0.002171749
0003c0 13 27 e9 3c bd b8 8b 3a c1 7c 6e 3d e8 8e c9 3c
       0.028461015 0.0010659915 0.058224443 0.024604276
0003d0 3e ed 30 3d 6a 47 86 bd 98 ff ba 3d 62 fc 9f 3d
       0.043195 -0.0655659 0.09130782 0.0781181
0003e0 e1 e0 c1 bc 7f 20 02 be 19 a7 45 3d 25 a5 04 be
       -0.0236668 -0.12707709 0.04825506 -0.12953623
0003f0 d0 9f 01 be 25 41 49 bd 65 36 2e bd 0e 9f be bd
       -0.1265862 -0.049134392 -0.042532343 -0.09307681

output_layer.bias f4 [8]
000000 39 75 0b 3d ad bf d8 3c da 3d 95 3d c9 a3 88 bb
       0.03404734 0.026458586 0.07287188 -0.0041699153
000010 b8 30 1e 3b 43 d1 dc bd a0 7e f0 3b ce 6f fc bd
       0.0024137925 -0.10782101 0.0073393136 -0.123260126
