src/models/linear_fashionmnist_holdout_[8]_nonfrozen.pt (torch, 408619 bytes, 4 tensors)

input_layer.weight f4 [128, 784]
000000 b6 64 b2 bc 34 f7 3e 3c aa cc f9 3b 6a 60 cc bc
       -0.021776538 0.0116556175 0.007623275 -0.024948318
000010 d0 a6 20 3b fd 58 a4 3c d6 97 79 3b 02 69 58 3d
       0.002451349 0.020061964 0.0038084886 0.05283452
000020 c1 39 ad 3d fa e8 a5 bd 08 3e 4c bc d6 a7 1f 3e
       0.08458281 -0.081010774 -0.012465961 0.15591368
000030 5a cf e1 bd 50 af 8e 3e 40 8b a2 3e fc 05 1a bd
       -0.11025877 0.27868128 0.31746864 -0.037603363
000040 69 73 d5 3b c5 72 82 b8 47 b5 0a be 3e fa be 3d
       0.006514002 -6.2202605e-05 -0.13545714 0.09325074
000050 61 de d4 3d 46 a3 20 3d c2 f4 19 3d 85 7e 43 bc
       0.10393978 0.03921821 0.037586935 -0.01193202
000060 d0 41 c1 3b eb 74 2e bb 9f d1 a8 3c d3 ea 37 3c
       0.005897738 -0.0026619982 0.020607768 0.01122542
000070 76 43 ea 3c 57 c0 36 3c de 7a a7 3c 45 05 57 bd
       0.028596621 0.011154256 0.02044433 -0.05249526
000080 8d ac 7d bd 08 40 ea bc 76 64 b0 bc 5e d2 5a bd
       -0.061932135 -0.028594986 -0.021532279 -0.053423278
000090 a7 22 0b be e2 a7 a2 ba d7 39 75 3e 77 04 40 3e
       -0.13587438 -0.0012409652 0.23947845 0.18751703
0000a0 5c 1f 35 be 4c d2 51 3d 63 84 1d 3e 65 10 4d bd
       -0.17687744 0.051225945 0.15382533 -0.050064463
0000b0 24 da 7b 3e cd 32 a1 3e dc f7 eb 3d 15 b7 8b 3d
       0.24594933 0.3148407 0.11521885 0.068220295
0000c0 26 a4 01 bc d2 2d a0 bc f6 5d b7 bd 9e bc d3 bd
       -0.007912671 -0.019553099 -0.089534685 -0.1033871
0000d0 00 10 4c bd 48 3c 54 bd 88 4a fb bc f4 ab b2 3c
       -0.049819946 -0.0518153 -0.030675188 0.02181051
0000e0 42 95 90 bc 0a 5a a6 bc 56 54 db 3b 1b 8b f3 bc
       -0.017649297 -0.020306606 0.0066934032 -0.029729417
0000f0 ac 57 ab bd ba a9 14 bd fd 2f d5 3b db b2 c0 bd
       -0.083663315 -0.036294676 0.006505965 -0.09409114
000100 90 5c d2 bd bb d8 77 bd 3b f1 ad bd 96 60 e5 bd
       -0.10271561 -0.060509425 -0.08493277 -0.11200063
000110 89 b1 86 3d 51 f8 8b bd 42 63 0d 3d 28 2f 72 3d
       0.06576831 -0.06834472 0.034518488 0.059127003
000120 6f 91 89 3d 05 df de bd d6 12 fa 3d f6 1e 96 bd
       0.067171924 -0.10882381 0.12210624 -0.07330124
000130 85 8b 27 bd 59 13 02 bd 10 0f 36 bd c7 06 3c bd
       -0.04090454 -0.031756733 -0.04444796 -0.0459049
000140 91 9c e9 bd a6 2d 34 bd 18 74 c3 3c b8 bf e1 3c
       -0.11406816 -0.043988846 0.023859069 0.027557239
000150 ce e1 cc bc c7 3e 33 bc 65 86 0c bd 0f 6a 70 bc
       -0.025010016 -0.01094026 -0.034307856 -0.014673724
000160 b7 2f 77 3c d8 6c 23 bd e9 ff b1 3a 55 0a 2f be
       0.01508706 -0.039898723 0.0013580295 -0.17093785
000170 9b a0 26 be 9f 43 0b bd f3 ff 3e 3e 91 72 eb 3d
       -0.16272204 -0.034000035 0.18652324 0.11496461
000180 0b c8 42 3c e9 b3 68 3d 21 20 d1 3d b2 80 dc 3c
       0.011888514 0.0568122 0.10211206 0.026916835
000190 ff 45 7c bd e5 9a 51 3d 75 1d fc 3d d7 3e 1c be
       -0.06159019 0.05117311 0.12310306 -0.15258346
0001a0 6f 23 b2 bc 51 44 0b bd be 22 9e 3c 97 57 16 bd
       -0.021745412 -0.0340007 0.019303676 -0.036704626
0001b0 78 5d c7 bd f0 11 83 bd ac 45 a8 3c 06 7e 98 3c
       -0.097346246 -0.06399906 0.020541035 0.01861478
0001c0 b4 d0 b5 3b cd 27 26 ba 91 14 97 bc 7b 01 30 bd
       0.005548561 -0.0006338328 -0.018442424 -0.042970162
0001d0 dd 44 80 3d 2a 92 21 bd f2 3c ec bd 0f 93 87 bd
       0.06263135 -0.039446034 -0.11535062 -0.06619846
0001e0 b3 d2 d9 bd 36 37 92 3d bc 18 a7 3d 62 0b 0b bc
       -0.10635891 0.07139437 0.081590146 -0.008486601
0001f0 a2 fd d6 3c 49 a8 2c 3d fc 0f 0b 3e f8 52 f8 bd
       0.026243988 0.042152677 0.13580316 -0.121252
000200 f6 45 61 bd cd 0d cb bd 40 f8 66 3d 3f f2 a6 3b
       -0.05499836 -0.09914742 0.056389093 0.005094796
000210 4f a1 a5 bc a5 69 a2 bd 60 e6 24 bd 51 cb c6 bb
       -0.02021852 -0.07930306 -0.040258765 -0.0060667177
000220 5c fe 05 bd 05 8a f6 bd 16 79 31 bd b1 22 2b 3c
       -0.03271328 -0.12038044 -0.043328367 0.010445283
000230 8c ef 25 3d 48 36 a3 bc d9 52 3e bd 1f aa 95 bc
       0.040511653 -0.019923344 -0.04646573 -0.018269597
000240 5e b4 07 3d f9 1e 25 3c 27 b5 0b be ab 5a 94 3d
       0.033130996 0.010078185 -0.13643323 0.07243856
000250 08 7d c3 bc 34 ba c2 3d fc 76 69 bc ae 38 14 3e
       -0.02386333 0.09508172 -0.0142495595 0.14474747
000260 b9 9d 16 3e 26 36 0b 3e 99 f9 3d 3e 91 fc 8d bd
       0.14708604 0.13594875 0.18552245 -0.06932939
000270 2f 00 a7 3d bc 6f 63 3c f2 ec b2 ba 94 fc 7f 3c
       0.08154332 0.01388162 -0.0013650937 0.015624184
000280 21 48 f5 3a b8 10 ce bb 7a eb 34 bd 3d ed 34 3d
       0.0018713513 -0.006288614 -0.04416988 0.04417156
000290 10 02 01 bd 92 d1 ca bd 75 9b 00 bd c9 26 7a bc
       -0.031496108 -0.099032536 -0.031398255 -0.015268036
0002a0 af 5a 6e 3c 39 d1 3a bd 92 6c 55 bd 83 fd 49 bc
       0.014547988 -0.045609687 -0.052105494 -0.012328508
0002b0 04 48 0e 3d 75 96 96 3b e6 60 11 3d 36 6f 93 3d
       0.03473665 0.0045955726 0.0354928 0.07198946
0002c0 c3 31 72 b9 82 4c cf bc 08 95 c7 bd 2b 30 e7 3d
       -0.00023097456 -0.025305036 -0.09745222 0.11288484
0002d0 68 af 20 bd 9d c7 2d 3c ec f1 05 3e ca 3b 53 3d
       -0.03922978 0.010606674 0.13080567 0.05157069
0002e0 cf 24 5e 3d 71 9f 31 3c 2a 2b f3 bd e0 de 64 bc
       0.054234322 0.010841236 -0.11873467 -0.013969153
0002f0 c2 fd ad 3d 59 1f 3d bd b6 b3 a8 3a 32 9a 67 3d
       0.08495666 -0.046172474 0.0012870941 0.056543536
000300 31 ee df bc d9 37 2d be a3 8d 92 bd 1d c0 46 3c
       -0.027335258 -0.16915835 -0.07155921 0.012130764
000310 98 d1 dd 3c ee 0f 08 bd bd a4 46 bc a7 21 a5 3c
       0.027077481 -0.033218317 -0.012124238 0.020157648
000320 7b fc 1d 3d 17 e3 24 3d 1f bb 72 3c 01 dd f0 bc
       0.038570862 0.040255632 0.014815121 -0.029402258
000330 92 f1 c4 bc 88 0a c4 bc d2 3f f1 3d ea 31 21 bd
       -0.024040971 -0.023930803 0.11779751 -0.039354242
000340 ce 9a b5 bb 42 e9 a0 bc 26 06 34 3e 4e ac 3e 3c
       -0.005542136 -0.019642476 0.1758047 0.01163776
000350 be e3 98 bd 33 2b 18 bd c0 33 81 bd 43 38 8e bd
       -0.074653134 -0.037150573 -0.06308699 -0.06944325
000360 18 3b 1c bc 86 d7 04 bd 41 00 7c bd ce fa ed 3c
       -0.009535573 -0.0324321 -0.06152368 0.029050257
000370 d4 92 ff bc 50 43 a7 bd 4c 5c 09 be ab a7 70 3c
       -0.031197943 -0.08167136 -0.13414115 0.014688413
000380 9a 4e 9d bb e5 4e e1 bc f1 45 e7 bc 3f f2 46 3c
       -0.00480063 -0.02750344 -0.028231593 0.012142717
000390 32 70 7b 3d 18 5d 0f 3d 56 55 93 bd bb b8 78 bd
       0.061386295 0.03500089 -0.07194011 -0.060723048
0003a0 13 2f 46 3d da f6 8c 3c 70 ca 14 3e ff e7 e9 3c
       0.048384737 0.017207552 0.14530349 0.028553007
0003b0 2e db dc bc 12 00 39 3b d4 0f a5 3d ef 60 03 3d
       -0.026959982 0.0028228802 0.080596596 0.032074865
0003c0 dc 6c b5 bc 36 00 60 bd 7e 3f af 3b ac 79 98 bd
       -0.022146635 -0.0546877 0.005348145 -0.07445082
0003d0 ba e8 86 bd d5 98 4e bd cb 39 b0 bd 1a 47 62 3d
       -0.06587358 -0.05043872 -0.08604773 0.05524359
0003e0 86 ea 4f bd 5b 44 09 be 74 91 c4 bd 5f 6c 11 bd
       -0.05076077 -0.13404982 -0.095980555 -0.03550374
0003f0 61 f0 90 3c 35 3e 37 bd b9 e6 18 bc 91 42 a4 bc
       0.017692747 -0.04473706 -0.009332352 -0.020051273

input_layer.bias f4 [128]
000000 e2 72 5c 3c cb b6 03 bd d5 0f a4 3b e3 1f a9 3b
       0.013455125 -0.032156747 0.00500677 0.005161272
000010 9b e8 38 3b 02 17 24 3d f2 a1 1d bc 58 93 f7 3c
       0.0028214816 0.040061004 -0.00962113 0.030221626
000020 67 55 cb 3b 6b 53 37 3b f2 a2 60 bd 36 e9 9b 3c
       0.006205249 0.0027973305 -0.054842897 0.019032102
000030 7c 9c 82 ba 66 8a 4b bb 63 31 ea bc 18 5c 0a bc
       -0.0009964849 -0.0031057834 -0.028588003 -0.008444808
000040 92 b0 1f bd 6f be 08 3c 15 6a 12 bd d3 0d a5 bb
       -0.03898675 0.008346184 -0.0357457 -0.0050370484
000050 7f c2 75 bc 05 32 a3 3c c8 5a 65 3c cc e2 e6 bc
       -0.014999985 0.019921312 0.013998695 -0.028184317
000060 54 d3 3b bd ae f7 28 3c f2 6b d3 3b 90 a6 84 bc
       -0.045855835 0.010312958 0.006452077 -0.016192704
000070 87 1e 2b bc 36 a5 84 bc 07 77 b9 bb 29 f7 54 ba
       -0.01044429 -0.01619206 -0.005659941 -0.0008123988
000080 89 11 13 bd 2c 2d 4f bd 70 35 1d bd 48 b2 e0 3c
       -0.035905395 -0.05058019 -0.03838104 0.027428761
000090 a3 b3 fa 3c 31 63 84 bc f5 e2 11 3d 67 10 f1 3c
       0.030603236 -0.01616058 0.035616834 0.029426767
0000a0 a6 28 d6 3c 90 38 14 3d f4 ad b1 3c ef 4e 63 bc
       0.02614243 0.036186755 0.021689393 -0.0138738
0000b0 ef 58 62 3c cc cd 99 3c 61 6c 84 bc 06 28 31 3d
       0.013815149 0.01877489 -0.01616496 0.04325106
0000c0 4e 96 3f 3b 1c 4c 2c 3d 89 3a 21 3d fb f9 b1 bc
       0.0029233876 0.04206477 0.039362464 -0.021725645
0000d0 76 7a 2d bc d1 30 eb bc 5c ef b3 bc b7 17 61 bc
       -0.010588279 -0.0287098 -0.021964721 -0.013738564
0000e0 47 46 3a 3d c3 f0 84 bc fa 60 d7 3b 18 47 5f 3c
       0.045477178 -0.016228085 0.00657284 0.01362779
0000f0 60 a6 fe bc ff ef f7 bc 8b 23 de bb 70 bb 2d 3c
       -0.031085193 -0.030265806 -0.0067791394 0.010603771
000100 18 7c 71 3d 9a b8 9f bc 02 f4 2d 3b 7e c5 e4 bc
       0.058956236 -0.019497205 0.0026543145 -0.027926203
000110 7e 86 03 bd fc 21 f5 bc 2e ae bf bb 68 f9 e5 bc
       -0.032110684 -0.029923432 -0.0058496213 -0.028073028
000120 f7 d7 10 3c 5c 0f 73 bc 15 6a ac bb 75 67 16 bd
       0.0088405525 -0.014835205 -0.0052616694 -0.036719758
000130 c9 5e 31 bd 80 82 4e bc a3 54 8d 3b 14 fd ab 3c
       -0.043303285 -0.012604356 0.004313068 0.0209947
000140 38 5f 67 3c a6 a5 86 3c 28 04 36 bc 92 63 a3 bc
       0.014121823 0.01643641 -0.011109389 -0.01994494
000150 df 33 8e 3d 5b 36 8c 3c 1e 0c ff bb 34 6d a9 bc
       0.069434874 0.017115762 -0.007783427 -0.020681955
000160 d3 eb ce ba f9 5d 58 3d 7c 19 e6 3c 50 77 62 3b
       -0.0015786834 0.052823994 0.028088324 0.003455598
000170 eb 15 17 bc 11 10 a4 bc 61 fa 2e 3c ee 04 84 bd
       -0.009221534 -0.020027192 0.010679812 -0.06446253
000180 7c dd 3e 3c b6 21 e6 3c 3d 8f 5f 3d 05 26 01 3d
       0.011649486 0.028092247 0.054579962 0.0315304
000190 49 05 80 bd cd f5 ee 3c 6a 9e 01 3d ab d5 e5 b9
       -0.06251008 0.029169941 0.031645216 -0.0004383748
0001a0 68 bf 1c bd 89 30 78 bb 6d 98 07 bd 81 fd c3 bc
       -0.038268477 -0.0037870726 -0.03310435 -0.023924591
0001b0 96 7c 29 3c ef 6b 18 3d eb c4 4e bc ea c8 0b bd
       0.010344645 0.03721231 -0.012620191 -0.034127153
0001c0 36 47 66 bc d7 95 6b bd 34 f6 34 bd 5c a3 30 bd
       -0.014055064 -0.057515945 -0.04418011 -0.04312454
0001d0 92 7b a8 bc 27 11 9d bd d2 5e 36 3d 93 d7 04 bd
       -0.020566735 -0.07669287 0.04452402 -0.03243215
0001e0 f1 29 42 bd a3 47 ff 3b 2a 70 d1 bc 56 c8 2b bc
       -0.04740328 0.007790522 -0.02556618 -0.0104847755
0001f0 58 42 38 3c e0 a6 00 bd 5c c2 d9 bc 67 2c c4 bc
       0.011246286 -0.031409144 -0.026581936 -0.023946954

output_layer.weight f4 [9, 128]
000000 22 7d cc bd ac 70 af bd 06 b8 d2 bd 6a b8 d0 3d
       -0.09984805 -0.08566412 -0.10289006 0.10191424
000010 ee f1 38 bd 5d bd 88 bd 93 56 a1 3d ac 80 1a bd
       -0.045152597 -0.06676743 0.07877841 -0.037720367
000020 87 75 a1 bc 3c 63 21 bd 52 1c 87 3d 06 60 6b bc
       -0.019709362 -0.039401278 0.065971985 -0.0143661555
000030 a5 a1 18 bc 0c 7e 1d 3d dc 8a 24 3c a0 91 48 bd
       -0.009315883 0.038450286 0.010042872 -0.048967004
000040 8a 30 dd bd a3 20 a8 3d a9 3b 28 3b a6 a2 59 bd
       -0.10800274 0.0820935 0.0025670326 -0.05313363
000050 82 83 15 bd 8f d3 bc 3d 5f 4b 4e bc 05 ad 14 be
       -0.03650237 0.09220039 -0.012591212 -0.14519127
000060 27 88 19 3c 26 3c 9e 3b 02 16 11 bd 77 91 6a 3d
       0.00937084 0.0048289476 -0.03542138 0.057267632
000070 f4 ae 52 bd 8f 38 37 3d 60 ca 06 be bd 9e 27 3c
       -0.05143638 0.044731673 -0.13163137 0.010230717
000080 02 5e c9 bd 61 48 a8 bd 70 65 0f be eb 58 2c 3d
       -0.09832384 -0.0821693 -0.14003539 0.042076986
000090 76 22 ff 3b c8 f7 0a bd 93 fd c2 3d b0 1a ec 3d
       0.0077860905 -0.03392771 0.09521022 0.11528528
0000a0 1e 95 90 bc e7 51 3c 3d b9 f1 c9 bd cf 8f 28 bd
       -0.01764923 0.045976546 -0.09860558 -0.04115277
0000b0 d7 ce 32 b8 0c a1 0e bd 85 e9 ce bc b1 bd be 3d
       -4.263114e-05 -0.034821555 -0.025257835 0.093135245
0000c0 7a 29 61 bd 8b f0 4b 3d 34 99 05 bd 73 5d aa bd
       -0.054971196 0.049789947 -0.03261681 -0.08318605
0000d0 70 6c 31 3d 52 49 9d bd 69 7d a1 bc 08 60 bd bd
       0.043316305 -0.0768 -0.01971312 -0.09246832
0000e0 f8 7e f6 3c 33 b0 1e bd af 82 b9 3d 48 38 d8 bd
       0.03008984 -0.038742255 0.09058129 -0.1055761
0000f0 43 9f 6d bd de 4a 81 bd 17 f3 12 bd 5c d6 7f bc
       -0.058013212 -0.06313108 -0.03587636 -0.015615072
000100 c6 4c 96 3d 50 ea 82 3d 8a 6d 8c bc aa 3b c7 bd
       0.07338862 0.06392348 -0.017142076 -0.09728177
000110 a6 73 36 bd 5a 4a 2c 3d ac 76 6b bc f6 e7 16 3d
       -0.044543885 0.042063095 -0.014371555 0.03684231
000120 5c 5c 79 3d b3 95 c4 3d d2 76 b2 bd 0a f3 a0 bb
       0.060879096 0.09598865 -0.087140694 -0.004911785
000130 47 8d 17 bd 29 18 c1 3c bf ac 11 3d 6a 65 8a 3c
       -0.036999967 0.02357109 0.035565134 0.016894061
000140 d0 b0 b4 bc 49 1a ed bd 94 50 ba bd ae c7 53 bd
       -0.022056967 -0.11577279 -0.090974 -0.0517041
000150 8e 7a 83 3d 62 0c 5a 3d 89 d4 57 bb 0d 84 a8 3c
       0.0641986 0.053234465 -0.0032933077 0.02057078
000160 d7 9d 75 bd 23 57 1c 3d e2 ac 2d bd b4 bd de 3b
       -0.05996498 0.038169038 -0.042401202 0.0067975167
000170 83 17 06 bd b1 c3 bc 3d 88 ed e7 bd b8 95 ef bd
       -0.032737266 0.09217013 -0.11324602 -0.116984785
000180 75 10 87 3d b7 59 55 bd 79 5b 80 3d b0 58 fe bb
       0.06594936 -0.052087512 0.06267447 -0.007762037
000190 e9 53 e7 bd 68 e3 af 3c 38 ae e8 3d 5f ff 3b be
       -0.112953015 0.02147074 0.113613546 -0.18359135
0001a0 d0 b9 3f bd fd b2 c2 3d 9f 50 a2 3d 34 b6 8c bd
       -0.046808064 0.095067956 0.079255335 -0.0687069
0001b0 6a 66 df bc f9 48 36 bd 7c 6d 11 3d 9f 7c d6 bb
       -0.027270515 -0.044503186 0.035504803 -0.0065456177
0001c0 b8 ee 15 bd e8 d4 79 bd 22 dc 84 3d 4f 5b b4 3c
       -0.036604613 -0.06099406 0.064872995 0.022016196
0001d0 dd dc 56 3c 8a b2 07 bd ea d1 4a 3d 3a e9 36 bc
       0.013114181 -0.033129252 0.049516596 -0.011164004
0001e0 7d 3c 75 3d 49 2f 9d 3d 76 1c 3b 3c 73 f3 9a bc
       0.05987214 0.076750346 0.01142036 -0.018914914
0001f0 4b 23 90 b9 7d c2 98 bd 37 20 b6 3d 7b 8b 93 bd
       -0.00027492116 -0.07458971 0.08892863 -0.07204338
000200 c5 e5 1e 3e 4d dc a2 bc d4 4a e6 3d ba 86 26 3d
       0.15517338 -0.019880438 0.11244741 0.04065583
000210 88 9e 85 3e 1e 3b 0b be 90 e5 00 3e d9 b0 03 3d
       0.26097512 -0.1359677 0.12587571 0.032151077
000220 d8 54 b7 3d 00 cd 36 be 70 65 12 bd 8c 08 55 3d
       0.089517295 -0.17851639 -0.03574127 0.052010104
000230 bb 50 1c bd 2e 14 d7 3c cf fa 84 bd 39 4f d7 3d
       -0.038162928 0.02625474 -0.064931504 0.105131574
000240 71 0d 04 bd ee 97 8d bc c7 a6 46 bd 18 15 1c bb
       -0.03223938 -0.01728436 -0.048498895 -0.0023816284
000250 0a de 02 bc 53 84 9a bd 17 d3 2d 3e 5f 2a 44 bc
       -0.007987509 -0.0754477 0.16975056 -0.011972993
000260 26 bb ea 3d d2 7e 05 be b2 57 eb 3d f0 03 80 3d
       0.11461477 -0.1303666 0.11491336 0.06250751
000270 75 80 a9 bd fe 1b 89 3d 45 8a d6 bd 90 00 01 be
       -0.08276454 0.06694792 -0.104755916 -0.12597871
000280 46 0e 19 bd 15 24 05 3e b0 f1 72 be 2d 54 35 3e
       -0.037367128 0.13002045 -0.23725009 0.17707892
000290 76 e3 05 bd a0 6d 0b be d7 a5 e5 bd 91 a8 a4 3d
       -0.032687627 -0.13616037 -0.11213272 0.08039964
0002a0 5c ed c6 3d bc a1 c2 3d a7 3e 3f be 92 a6 71 bd
       0.097132415 0.09503505 -0.18676244 -0.058996744
0002b0 de b7 2e 3e 25 b0 33 bd d6 ed f8 3b 3b df 0e 3d
       0.17062327 -0.043869156 0.0075967116 0.034880858
0002c0 5e 5a bd 3c eb 20 b3 3d 95 ac 28 bd 42 b3 53 bc
       0.02311438 0.08746513 -0.041180212 -0.012921156
0002d0 31 42 17 3e 09 e5 a6 bd b7 0d 0d 3e 3e 48 88 bc
       0.14771344 -0.08149154 0.13774763 -0.01663601
0002e0 95 f0 2c be 29 1b ae 3c 12 14 70 bc 38 d5 aa 3d
       -0.1688865 0.021253185 -0.014653223 0.083414495
0002f0 2f 6c 56 bc 6c 6d a4 bd c8 55 98 3d 60 e1 79 3d
       -0.013087316 -0.08028683 0.074382365 0.06100595
000300 0e 94 1e bc b3 ac 0c 3c cc b1 0f 3d b3 ec b0 bd
       -0.009678854 0.008586097 0.03508167 -0.08638897
000310 85 58 ef 3d 07 66 9d bd 8a 30 d3 bd 13 a3 26 be
       0.11686806 -0.07685476 -0.103119925 -0.16273145
000320 b8 2d e7 bb 0d 4f 51 3e 87 d8 7c 3d b7 fb 6b bd
       -0.0070550106 0.20440312 0.061729934 -0.0576131
000330 44 fc 7a bd ec 94 dc bc 6b f9 b5 3b f5 ff ce 3d
       -0.061275735 -0.02692648 0.0055534146 0.10107414
000340 e6 f1 76 3d 55 c8 23 bd 74 be 9a 3d d6 84 0d bd
       0.060289286 -0.039985973 0.07555857 -0.03455051
000350 cb fc 50 bd ac c7 59 3d 7e 33 06 be 35 f3 bb bd
       -0.051022332 0.053168938 -0.1310558 -0.091772474
000360 34 41 65 bd 6a c5 a9 bd 91 cf c7 bc fe 2f ee 3d
       -0.055970386 -0.08289607 -0.024390968 0.116302475
000370 86 c4 2c bc f2 b6 57 bd 8e 87 50 bd 08 22 40 3c
       -0.010544902 -0.052664705 -0.050910525 0.011726864
000380 07 79 09 be 87 70 84 bd 84 7c b0 bc 0c 7d c8 3d
       -0.13425075 -0.064667754 -0.021543749 0.09789476
000390 2c 0e 5e bd 96 7a 04 3d 57 12 17 3e 69 9e 22 be
       -0.054212734 0.03234347 0.1475309 -0.15880741
0003a0 86 9d 9b bd 9e 2c 12 3e 4c ce 03 3e b0 48 aa 3d
       -0.075984046 0.14274833 0.12871665 0.08314645
0003b0 af 7a 79 3d 00 fb 06 bd 14 41 c2 bd 27 f8 d8 3b
       0.060908016 -0.032954216 -0.09485069 0.006621379
0003c0 06 b9 0c 3e 6a 98 2c bd 12 48 80 3d 2c ab 94 3c
       0.13742456 -0.04213754 0.06263746 0.018148027
0003d0 17 d7 25 3e da d2 fe 3d e2 05 94 bc de b7 b7 3d
       0.16195332 0.124425605 -0.018069211 0.08970617
0003e0 2a 3e 90 3d 66 da 16 be 03 16 97 3d 13 14 e9 3b
       0.07043107 -0.1473175 0.07377245 0.0071129887
0003f0 a1 c0 81 3d 1e d7 fb bd 86 a8 d2 bd f8 d6 09 be
       0.06335569 -0.1229689 -0.102860495 -0.1346091

output_layer.bias f4 [9]
000000 06 1d 63 bd ad d9 4d bc 77 df 36 3d 01 a2 86 3d
       -0.0554476 -0.012564105 0.044646706 0.065738685
000010 24 31 11 3d cd a6 05 be f7 27 ec 3d 1b af b8 bd
       0.035447255 -0.1305191 0.1153106 -0.09017774
000020 f4 4e 2e bf
       -0.6808922
