src/models/linear_fashionmnist_holdout_[8]_frozen.pt (torch, 408601 bytes, 4 tensors)

input_layer.weight f4 [128, 784]
0	0xbcb6a8c0	-0.022297263
1	0x3c36ddf4	0.011161316
2	0x3be905e3	0.0071112975
3	0xbccfbefa	-0.02535962
4	0x3b20ca9a	0.0024534822
5	0x3cacfe50	0.02111736
6	0x3baf5506	0.0053507118
7	0x3d49bb71	0.049251024
8	0x3da0825b	0.07837363
9	0xbdb115d3	-0.08646741
10	0xbcc26d4a	-0.023733754
11	0x3e15d456	0.14631781
12	0xbdfb646f	-0.122750156
13	0x3e8bebeb	0.2732843
14	0x3e9b0fa2	0.30285364
15	0xbd5042a3	-0.0508448
16	0xbb38b100	-0.0028181672
17	0xbb41461e	-0.0029491256
18	0xbe130cce	-0.14360353
19	0x3dada8ff	0.08479499
20	0x3dc703f2	0.097175494
21	0x3d194b2e	0.037425213
22	0x3d1d5e2a	0.03841988
23	0xbc42bfdd	-0.011886564
24	0x3bc36a7a	0.0059636207
25	0xbb37d7f5	-0.0028052304
26	0x3ca48bd0	0.020086199
27	0x3c2ed2da	0.010670388
28	0x3ce5ff76	0.028075915
29	0x3c2f17e7	0.010686851
30	0x3ca3b082	0.019981626
31	0xbd58ab8f	-0.052897986
32	0xbd76f443	-0.06029154
33	0xbcd58d26	-0.026068281
34	0xbcd80552	-0.026369724
35	0xbd7b0e81	-0.06129313
36	0xbe177669	-0.14791264
37	0xbc87c225	-0.016572068
38	0x3e689e1a	0.22716561
39	0x3e29fe5d	0.16600938
40	0xbe3badaa	-0.18327966
41	0x3d31c79f	0.043403264
42	0x3e192660	0.14956045
43	0xbd2d86cf	-0.04236489
44	0x3e6bb2dc	0.23017448
45	0x3ea0c1db	0.313979
46	0x3df3c865	0.119034566
47	0x3d521e9b	0.05129872
48	0xbc88967f	-0.016673325
49	0xbcad7b2b	-0.021176895
50	0xbdaa4054	-0.08313051
51	0xbdcaa3e9	-0.09894545
52	0xbd421ab4	-0.047388747
53	0xbd4b32e8	-0.049609095
54	0xbcff7c20	-0.031187117
55	0x3cae8bfa	0.02130698
56	0xbc9447ad	-0.018100584
57	0xbca82002	-0.020523075
58	0x3bd0dd24	0.0063740183
59	0xbcf651a6	-0.03006823
60	0xbda60d49	-0.08108003
61	0xbd447257	-0.047960605
62	0xbc76a0c7	-0.015052981
63	0xbdf6bbdd	-0.12047551
64	0xbe01f4f6	-0.12691101
65	0xbd79627e	-0.060884945
66	0xbdaaacdc	-0.083337516
67	0xbdf00f95	-0.11721722
68	0x3d3f6aff	0.0467329
69	0xbdbf344b	-0.09336146
70	0x3c5cbd4d	0.013472867
71	0x3d4e4730	0.05036086
72	0x3d4d8573	0.050176095
73	0xbdfefb2f	-0.12450253
74	0x3deb50a9	0.11489994
75	0xbdd44d33	-0.10366287
76	0xbd8bdf4e	-0.06829701
77	0xbd6863cc	-0.0567358
78	0xbd5a518f	-0.053300437
79	0xbd22bcad	-0.039730716
80	0xbde11630	-0.1099056
81	0xbd1f2a22	-0.03885854
82	0x3cacb119	0.02108054
83	0x3cdb5dc0	0.026778102
84	0xbccf59ca	-0.02531137
85	0xbc334aa9	-0.010943093
86	0xbd0db8f9	-0.03460023
87	0xbc796b1b	-0.01522329
88	0x3c3b3d8d	0.011428249
89	0xbd762142	-0.06009031
90	0xbcc3eb45	-0.023915896
91	0xbe4aa226	-0.19788417
92	0xbe38c939	-0.1804551
93	0xbd025cb1	-0.03182668
94	0x3e321cae	0.17393753
95	0x3dde3264	0.10849455
96	0x3c601eb3	0.013679194
97	0x3d6c3400	0.05766678
98	0x3dd970df	0.106172316
99	0x3ced3a3a	0.028958429
100	0xbdb204fd	-0.08692358
101	0x3ce6de14	0.028182067
102	0x3ddd1e8f	0.10796844
103	0xbe2a9215	-0.16657288
104	0xbd33980d	-0.04384618
105	0xbd708826	-0.05872359
106	0xbb10f250	-0.0022117086
107	0xbd22e9d7	-0.03977379
108	0xbdd8666a	-0.10566409
109	0xbd7c1102	-0.061539657
110	0x3c56b52f	0.013104721
111	0x3c7a2134	0.015266705
112	0x3ba4c0c1	0.005027861
113	0xba437eea	-0.00074575713
114	0xbca01ee4	-0.01954598
115	0xbd33d91a	-0.043908216
116	0x3d506faa	0.05088774
117	0xbd73fdd6	-0.05956825
118	0xbe05b9ff	-0.13059233
119	0xbdba3bbd	-0.090934254
120	0xbdf5fbec	-0.12010941
121	0x3d89dbd0	0.06731379
122	0x3d86e8c3	0.065873645
123	0xbc90957b	-0.017649403
124	0x3ce452f5	0.027871588
125	0x3d234256	0.039858185
126	0x3df56a42	0.11983158
127	0xbdd717d6	-0.10502593
128	0xbd985697	-0.07438391
129	0xbdf9a5ea	-0.12189849
130	0x3d2dcdc3	0.042432558
131	0xbc777212	-0.01510288
132	0xbd616955	-0.055032093
133	0xbdd8bd8c	-0.10583028
134	0xbd8b942f	-0.06815373
135	0xbc7c56d6	-0.015401563
136	0xbd028ffc	-0.031875595
137	0xbde1a92e	-0.110185966
138	0xbd483ff4	-0.048889115
139	0x3c0b9765	0.008519982
140	0x3d23cdaa	0.03999106
141	0xbcafc75b	-0.021457365
142	0xbd458d25	-0.04823031
143	0xbc8f9473	-0.01752684
144	0x3c99153c	0.018686883
145	0x3a25529c	0.000630656
146	0xbe1bc48e	-0.15211698
147	0x3d78f9dd	0.060785163
148	0xbcfdb73a	-0.030971158
149	0x3dc0362c	0.093853325
150	0xbc4814f8	-0.012212031
151	0x3e1482bb	0.14502995
152	0x3e1d315c	0.1535086
153	0x3e035246	0.12824354
154	0x3e335b32	0.17515257
155	0xbd4523ec	-0.04812996
156	0x3d9106d9	0.07081384
157	0xbc743e7d	-0.0149074765
158	0xbc5c2d5a	-0.013438547
159	0x3d0a597c	0.033776745
160	0xbc57f21f	-0.013180285
161	0xbd0e819b	-0.03479157
162	0xbd903356	-0.070410416
163	0x3d352a53	0.044229817
164	0xbc9dd2e3	-0.019265598
165	0xbd9a7b37	-0.075430326
166	0xbd13a3b4	-0.03604479
167	0xbc823b17	-0.015897317
168	0x3c65d288	0.014027245
169	0xbd3dd8cc	-0.04634933
170	0xbd5ad9ed	-0.053430486
171	0xbc88a588	-0.016680494
172	0x3cdbcfe6	0.026832532
173	0x3b9f7294	0.0048659537
174	0x3cd51664	0.026011653
175	0x3d7e5dec	0.06210129
176	0xbbfa076c	-0.0076302793
177	0xbcd0e4e3	-0.025499767
178	0xbda936ce	-0.08262406
179	0x3e05ab31	0.13053586
180	0xbd08efd9	-0.03343186
181	0x3b3cd2ba	0.0028812126
182	0x3e127cf0	0.14305472
183	0x3d88d84a	0.06681879
184	0x3d3bedd3	0.045881104
185	0xbd3ea238	-0.046541423
186	0xbe2207ef	-0.15823339
187	0xbd010883	-0.031502258
188	0x3d942100	0.07232857
189	0xbd1c5917	-0.0381709
190	0x3ba1bcbb	0.0049358285
191	0x3d65603b	0.055999976
192	0xbcbec0d2	-0.023285303
193	0xbe043181	-0.12909509
194	0xbd8fb119	-0.070162006
195	0x3c8f0d09	0.01746227
196	0x3cd98d94	0.026556768
197	0xbd09636a	-0.033542074
198	0xbc6a062c	-0.014283698
199	0x3c5f049f	0.013611942
200	0x3d041c84	0.032253757
201	0x3d11561f	0.035482522
202	0xba854fe1	-0.00101709
203	0xbd18dae0	-0.03731811
204	0xbce9c716	-0.028537314
205	0xbc86e33e	-0.01646578
206	0x3e055500	0.13020706
207	0xbcda5916	-0.026653808
208	0x3a86d22a	0.0010286022
209	0xbbfbb64f	-0.007681645
210	0x3e3db346	0.18525419
211	0xbba79e0c	-0.005115276
212	0xbd67835e	-0.056521766
213	0x3c8b12e9	0.01697679
214	0xbd0ad849	-0.03389767
215	0xbdd83b32	-0.105581656
216	0x3c3a0dab	0.011355798
217	0xbc26b48f	-0.010174884
218	0xbd76a185	-0.06021263
219	0x3ccfab2e	0.02535018
220	0xbca2364c	-0.019801281
221	0xbd91f49b	-0.07126733
222	0xbdc2324f	-0.09482252
223	0x3ce51507	0.027964128
224	0xbbaf2788	-0.0053452887
225	0xbce49a09	-0.027905481
226	0xbd11c3b6	-0.035587035
227	0x3b5f3d93	0.00340638
228	0x3d75b923	0.059991013
229	0x3cd95c42	0.02653325
230	0xbdc3f2e2	-0.095678106
231	0xbd764c5b	-0.060131412
232	0x3d1e0b18	0.0385848
233	0x3ccace59	0.024756597
234	0x3e2e2914	0.17007858
235	0x3d32348a	0.043507136
236	0x3abd0ae7	0.0014422805
237	0x3cd8d887	0.026470436
238	0x3db55557	0.08854168
239	0x3d0494b2	0.03236837
240	0x3c91576a	0.017741878
241	0xbd7b4322	-0.06134332
242	0x3cac1b5f	0.021009145
243	0xbd3f2a75	-0.04667135
244	0xbdc68714	-0.09693733
245	0xbd92b28d	-0.07162962
246	0xbd87a44f	-0.06623136
247	0x3dad1628	0.084514916
248	0xbca8d3d3	-0.020608818
249	0xbdc1b01f	-0.094574206
250	0xbcb8fb03	-0.02258063
251	0xbcd65d48	-0.026167527
252	0x3c8c7a2e	0.017148104
253	0xbd38e44e	-0.045139603
254	0xbc0f7340	-0.008755505
255	0xbc9abd82	-0.018889192

input_layer.bias f4 [128]
0	0x3c64fadd	0.013975826
1	0xbd1078ad	-0.035271335
2	0x3c42f25e	0.011898605
3	0x3c6caffe	0.014446257
4	0x3c1db13b	0.009624775
5	0x3ce79942	0.028271321
6	0xbb9d7cb0	-0.0048061237
7	0x3cf65f90	0.030074865
8	0x3c87e0dc	0.016586713
9	0xbbe46229	-0.0069697094
10	0xbd3bb821	-0.045829896
11	0x3c4e1c2c	0.012579959
12	0x3aebed2e	0.0017999762
13	0xbc660ae6	-0.014040684
14	0xbcc7f514	-0.024408855
15	0xbc536536	-0.012902549
16	0xbd13d715	-0.03609379
17	0x3c623888	0.013807423
18	0xbd075be1	-0.033046607
19	0xbc5bd9dd	-0.013418642
20	0xbc2df433	-0.010617304
21	0x3cc3e310	0.023911983
22	0x3c8dc852	0.017307434
23	0xbd0644ae	-0.03278034
24	0xbd1dfabc	-0.038569197
25	0x3b2743c9	0.002552258
26	0xbb33434c	-0.0027353344
27	0xbc9ad375	-0.018899659
28	0xba3b202c	-0.0007138278
29	0xbc331582	-0.010930421
30	0xbc72add5	-0.014811953
31	0xbb7f6012	-0.0038967174
32	0xbcf3b0da	-0.029747415
33	0xbd13d058	-0.036087364
34	0xbd42e459	-0.04758105
35	0x3d16d6b4	0.03682585
36	0x3d1061f5	0.03524967
37	0xbb864259	-0.0040972647
38	0x3d02fba6	0.031978272
39	0x3cb6b487	0.022302879
40	0x3d08a8b6	0.03336402
41	0x3d23feb4	0.040037826
42	0x3c4e279b	0.012582685
43	0xbca1e551	-0.019762667
44	0x3c8f1416	0.017465632
45	0x3c727983	0.014799478
46	0xbcd80bc6	-0.026372802
47	0x3d453abc	0.048151717
48	0x3c18c63e	0.009324608
49	0x3d4fa034	0.05068989
50	0x3d1c5b91	0.038173262
51	0xbc8e0a93	-0.017339027
52	0xbbfd8ce5	-0.007737743
53	0xbd2613ec	-0.040546343
54	0xbcea56d4	-0.028605856
55	0xbc9c6751	-0.019092234
56	0x3d22faba	0.039789893
57	0xbc73bc94	-0.0148765035
58	0x3c13d62b	0.00902323
59	0x3af940a8	0.0019016461
60	0xbcc3f773	-0.023921704
61	0xbd087e3e	-0.03332352
62	0xbbdc83d5	-0.006729583
63	0x3bb279c2	0.0054466436
64	0x3d48c601	0.049016956
65	0xbcbf1007	-0.023323072
66	0x3c12c646	0.008958405
67	0xbd1e16ed	-0.038596082
68	0xbcde2986	-0.02711941
69	0xbcabe6f8	-0.020984158
70	0xbab4924d	-0.0013776511
71	0xbcb7aac1	-0.022420289
72	0x3ba2cbb3	0.0049681305
73	0xbb39811c	-0.0028305715
74	0xbb965dd9	-0.004588824
75	0xbd3d952b	-0.046284836
76	0xbd1a3cf2	-0.03765578
77	0xbc08755a	-0.00832876
78	0x3be5504c	0.0069980975
79	0x3cd310c8	0.025764838
80	0x3c72a0fc	0.0148088895
81	0x3ca0fd24	0.019651957
82	0xbca3c489	-0.019991176
83	0xbca7533a	-0.020425428
84	0x3d83077a	0.063979104
85	0x3c17c798	0.009263895
86	0xbc34a293	-0.011025089
87	0xbcc51b7e	-0.02406096
88	0x3a8b1c3a	0.001061327
89	0x3d3e3c3a	0.046444155
90	0x3d0f8c4d	0.03504591
91	0x3c4cf443	0.012509408
92	0xbc23237f	-0.009957193
93	0xbc593adf	-0.013258665
94	0xb9373746	-0.00017472831
95	0xbd7d7829	-0.06188217
96	0x3c85ad5a	0.016318012
97	0x3cdbf04a	0.026847977
98	0x3d4de14b	0.050263684
99	0x3ce0a6c5	0.027423272
100	0xbd77fd9c	-0.060544595
101	0x3cff4346	0.031160008
102	0x3d186cad	0.037213016
103	0x3b373db7	0.002796037
104	0xbd48b282	-0.048998363
105	0x3bc2eff2	0.005949014
106	0xbd12bb8d	-0.035823394
107	0xbcabdc46	-0.020979058
108	0x3b3ccce9	0.002880866
109	0x3d06af15	0.032881815
110	0xbbcf01d2	-0.0063173557
111	0xbcd4452d	-0.025911892
112	0xbc35307c	-0.011058923
113	0xbd4085fb	-0.047002774
114	0xbd33ead0	-0.043925107
115	0xbd13be68	-0.036070257
116	0xbc8c9511	-0.017160924
117	0xbdb6cbf5	-0.089256205
118	0x3d45dfb1	0.048309032
119	0xbcd75166	-0.026283931
120	0xbd21c037	-0.03948995
121	0x3b9d89ad	0.004807672
122	0xbc890b0e	-0.016728904
123	0xbba872b6	-0.0051406277
124	0x3cabae02	0.020956997
125	0xbcfeaee5	-0.031089256
126	0xbcfa1fde	-0.030532774
127	0xbc9c72ae	-0.019097652

output_layer.weight f4 [9, 128]
0	0xbd8c4144	-0.06848386
1	0xbcdc3e3a	-0.02688514
2	0xbdb83c26	-0.089958474
3	0x3d5e23cb	0.054233354
4	0x3b42f8df	0.002975039
5	0xbd2e0ac4	-0.042490736
6	0x3d9a973d	0.07548378
7	0x3cf74e32	0.030188654
8	0xbd2f9b1c	-0.042872533
9	0xbd0827e3	-0.033241164
10	0xbbde6d56	-0.006787936
11	0x3d24b542	0.040211923
12	0xbd4d504c	-0.050125405
13	0x3b8c503f	0.004282027
14	0xbc52c8d1	-0.012865261
15	0xbd6cf106	-0.057847045
16	0xbda2ac19	-0.07942981
17	0x3d270eda	0.040785648
18	0xbb15839c	-0.002281404
19	0xbc7eb4f9	-0.015546077
20	0xbc8b793b	-0.01702558
21	0x3da1beb5	0.078977026
22	0x3d8dd2dc	0.06924984
23	0xbde7d324	-0.11319569
24	0x3cde12d0	0.02710858
25	0xbc91b340	-0.017785668
26	0x3c497add	0.012297359
27	0x3dc82805	0.09773258
28	0xbd9b717e	-0.07590006
29	0x3da1260b	0.07868584
30	0xbdb9c1fa	-0.09070201
31	0xbc5336b3	-0.012891459
32	0xbdeedd79	-0.11663336
33	0xbd49c9de	-0.04926478
34	0xbdd70c12	-0.10500349
35	0x3d94cb98	0.07265395
36	0x3cc3fed0	0.023925215
37	0xbd3b0204	-0.04565622
38	0x3d8f8956	0.070086166
39	0x3e0c8973	0.13724308
40	0xbbee149b	-0.00726564
41	0x3d07d099	0.03315792
42	0xbd769de7	-0.06020918
43	0xbd3f72fd	-0.04674052
44	0x3d3a6453	0.045505833
45	0x39eb96ef	0.00044935147
46	0xbc0d50e5	-0.008625244
47	0x3da291dd	0.079379775
48	0xbd5336ba	-0.051565863
49	0x3ce53327	0.027978493
50	0xbd2472e6	-0.04014864
51	0xbd985edb	-0.07439967
52	0x3c944ee0	0.018104017
53	0xbd8ee32c	-0.06976923
54	0x3c50b82b	0.012739222
55	0xbd3da418	-0.04629907
56	0xbc48f567	-0.01226554
57	0xbd0f08bb	-0.034920435
58	0x3dcb9966	0.09941368
59	0xbd8bd066	-0.06826858
60	0xbda5e44b	-0.08100184
61	0xbcab9807	-0.020946516
62	0xbcf7f504	-0.0302682
63	0x3b126529	0.0022338128
64	0x3d6cd52c	0.057820484
65	0x3d4ad905	0.049523372
66	0xbc89633a	-0.016770948
67	0xbdafc417	-0.08582323
68	0xbb921396	-0.004457901
69	0xb9d0cb73	-0.00039824433
70	0xbcd0be86	-0.025481474
71	0x3c66ddf7	0.0140910065
72	0x3ccfcccb	0.025366208
73	0x3da4cfd5	0.08047453
74	0xbd5334de	-0.05156409
75	0xbbc0ff91	-0.005889841
76	0xbd4a680f	-0.049415644
77	0x3d0a2ffe	0.033737175
78	0x3cf9e502	0.030504707
79	0x3cb258e6	0.021770906
80	0xbcdcd569	-0.02695723
81	0xbda3aad9	-0.07991571
82	0xbd230c38	-0.039806575
83	0xbd08c6fd	-0.033392895
84	0x3d2c5992	0.04207761
85	0x3d969de6	0.073543355
86	0xbc1767d6	-0.009241065
87	0xbd0faada	-0.035075046
88	0xbd17d021	-0.03706372
89	0x3cbe1586	0.023203623
90	0xbd14c354	-0.036319092
91	0xbc1464e8	-0.009057261
92	0x398b0679	0.00026516969
93	0x3d8cf3a8	0.06882411
94	0xbdb360ad	-0.08758674
95	0xbdbbb3f8	-0.09165186
96	0x3d90f435	0.07077829
97	0xbd527026	-0.051376484
98	0x3d3a13be	0.045428984
99	0x3a063040	0.0005118884
100	0xbdc8002a	-0.09765656
101	0x3c37e3b5	0.011223723
102	0x3d72ab1e	0.05924522
103	0xbe2ae599	-0.16689147
104	0xbca24dea	-0.019812543
105	0x3d862d3e	0.06551598
106	0x3dbe7768	0.09300119
107	0xbc9d5f21	-0.0192104
108	0x3cc06d6f	0.023489682
109	0xbd23517a	-0.039872624
110	0xbd027069	-0.031845484
111	0xbcbac2bf	-0.02279794
112	0xbbe70929	-0.0070506525
113	0xbdd79486	-0.105263755
114	0x3d487ff5	0.048950154
115	0xbc200a7b	-0.009768124
116	0x3d829c2b	0.06377443
117	0xbc7ecf8e	-0.015552415
118	0x3d8091de	0.06277822
119	0xbacc802b	-0.0015602162
120	0x3cb872dc	0.022515707
121	0x3d5dc846	0.054146074
122	0xbb8ee969	-0.0043613208
123	0xbc1d9185	-0.009617214
124	0xbc975172	-0.018471453
125	0xbd1b80de	-0.037964694
126	0x3d2ac340	0.04169011
127	0xbd757b9b	-0.059932332
128	0x3df54450	0.1197592
129	0xbc9a57ba	-0.01884066
130	0x3dd09b97	0.101859264
131	0x3a7c86b8	0.0009633112
132	0x3d9ba9d8	0.076007545
133	0xbdb8c3ce	-0.09021722
134	0x3e24ee8c	0.16106623
135	0x3d1e163b	0.03859542
136	0x3d1189c2	0.035531767
137	0xbdc7710b	-0.09738358
138	0xbcb06579	-0.021532761
139	0x3d1b1926	0.03786578
140	0xbd4c61e0	-0.04989803
141	0x3c4c8688	0.012483247
142	0xbd3ea966	-0.04654827
143	0x3dae641f	0.0851519
144	0x3b35635d	0.0027677633
145	0xbd4a7f69	-0.049437914
146	0xbccc675c	-0.02495163
147	0x3ca2a460	0.01985377
148	0xbb8e03de	-0.004333957
149	0xbd38a558	-0.04507956
150	0x3d5c6f9b	0.053817373
151	0xbc63d76a	-0.013906339
152	0x3daf47d1	0.0855862
153	0xbd5c33a0	-0.05376017
154	0x3e0d7959	0.13815822
155	0x3db288ba	0.08717485
156	0xbde4c423	-0.111702226
157	0x3d91dfe6	0.07122783
158	0xbda91480	-0.08255863
159	0xbd4fd002	-0.05073548
160	0xbdedaede	-0.11605619
161	0x3da5fa49	0.08104379
162	0xbe1be791	-0.15225054
163	0x3df1bad4	0.11803213
164	0xbcfb8605	-0.030703554
165	0xbe16ae8c	-0.14715022
166	0xbd94fcf4	-0.072748095
167	0x3e219743	0.15780358
168	0x3cc227a9	0.023700552
169	0x3d6e42a8	0.058169037
170	0xbde5a6ea	-0.11213477
171	0xbd15b02b	-0.03654496
172	0x3dbd8a30	0.09254873
173	0xbcb788ca	-0.022404093
174	0x3d255853	0.040367436
175	0xbbb3f4b8	-0.005491819
176	0xbc4a52fc	-0.012348887
177	0x3d189ce8	0.037259012
178	0xbd1aeab6	-0.037821494
179	0xbd1463d7	-0.036228027
180	0x3d954553	0.07288613
181	0xbd3756d0	-0.044760525
182	0x3e0b555f	0.13606785
183	0x3cf24f1f	0.029578744
184	0xbe0ef755	-0.13961537
185	0x3c34caa3	0.0110346405
186	0x3d02324a	0.03178624
187	0x3e08e5f4	0.1336897
188	0xbd00b9b0	-0.031427085
189	0xbc4a6506	-0.012353187
190	0x3d850eba	0.064969495
191	0x3d125c9c	0.03573285
192	0x3d1b2961	0.03788126
193	0x3c8f7925	0.01751382
194	0x3adcb582	0.0016838762
195	0xbd4d377e	-0.05010175
196	0x3d25a201	0.040437702
197	0xbdcc53c9	-0.09976918
198	0xbdbce2f2	-0.09222974
199	0xbe2a9af0	-0.16660666
200	0x3b9556eb	0.0045574806
201	0x3df6ebe1	0.12056709
202	0x3d44cba6	0.048045777
203	0x3cacff74	0.021117903
204	0xbd861627	-0.06547194
205	0xbc361a51	-0.011114673
206	0x3ca27bd3	0.019834435
207	0x3d2110ce	0.039322667
208	0x3ccde7fa	0.02513503
209	0xbdd61226	-0.1045268
210	0x3dc0486b	0.09388813
211	0xbd00c09c	-0.031433687
212	0xbd9d36e7	-0.076764874
213	0x3c890164	0.016724296
214	0xbda62ac0	-0.08113623
215	0xbd46cab9	-0.048533175
216	0xbda9c9e7	-0.08290463
217	0xbd9cd278	-0.07657331
218	0xbdf347ac	-0.11878905
219	0x3ccf1343	0.02527774
220	0x3b54cd8a	0.0032471144
221	0xbcb18282	-0.021668676
222	0xbcb378b3	-0.02190814
223	0x3d169a08	0.03676799
224	0xbdfae31e	-0.122503504
225	0xbd6b3acd	-0.057429124
226	0xbd80206c	-0.06256184
227	0x3d808244	0.06274846
228	0xbd9b1df0	-0.075740695
229	0xbcd7cd33	-0.026342964
230	0x3d88c46d	0.0667809
231	0xbe200413	-0.15626554
232	0xbcecf551	-0.02892557
233	0x3da286db	0.07935878
234	0x3e073a8a	0.13205925
235	0x3d6bb7fb	0.057548504
236	0x3cc3e04f	0.02391067
237	0xbd8e4780	-0.06947231
238	0xbd3741bf	-0.044740435
239	0xbb6ef1ea	-0.003646011
240	0x3d34f605	0.044179935
241	0xbd7fd4f4	-0.062458947
242	0x3d78bdbe	0.060727827
243	0x3c6075c2	0.013699951
244	0x3e13ec39	0.1444558
245	0x3e00bdf4	0.12572461
246	0xbc5f9551	-0.01364644
247	0x3d0fa8d7	0.035073128
248	0x3d9308d1	0.07179416
249	0xbda63e96	-0.08117406
250	0x3d3f1bc8	0.046657354
251	0x3cb34f79	0.021888481
252	0x3d1f53b5	0.03889819
253	0xbcb99df8	-0.022658333
254	0xbcd8da64	-0.026471324
255	0xbdc859d3	-0.097827576

output_layer.bias f4 [9]
0	0xbd681e73	-0.056669664
1	0xbbb6a3c2	-0.0055737207
2	0x3d6c9dd9	0.057767723
3	0x3d5dfd70	0.054196775
4	0x3d1272f9	0.035754178
5	0xbe058b33	-0.13041382
6	0x3de32a4c	0.11092052
7	0xbdc7ec98	-0.097619236
8	0xbecb9f79	-0.39770105
