src/models/linear_fashionmnist_holdout_[8].pt (torch, 408431 bytes, 4 tensors)

input_layer.weight f4 [128, 784]
0	0xbc86e7f6	-0.01646803
1	0x3c31bddb	0.010848488
2	0x3de4eb29	0.11177666
3	0xbb2ff479	-0.0026848598
4	0x3df3ffc7	0.1191402
5	0x3e3ce1fa	0.18445578
6	0x3e219165	0.1577812
7	0x3ebc56f2	0.36785084
8	0x3ec83155	0.39100137
9	0xbcc13e8b	-0.023589393
10	0xbd946c69	-0.0724724
11	0x3e8e4996	0.27790517
12	0xbe21ea34	-0.15811998
13	0x3eb638e8	0.3559029
14	0x3ef7aabd	0.4837245
15	0xbc9bbdbd	-0.019011373
16	0xbcd9e581	-0.026598694
17	0xbd8365f9	-0.06415934
18	0xbe77465f	-0.24147938
19	0x3e3b2bee	0.18278477
20	0x3f1747de	0.59094036
21	0x3e8882ad	0.26662198
22	0x3de5a6c4	0.11213449
23	0x3ddf127b	0.10892197
24	0x3d12be6d	0.035826135
25	0xbd5f69d9	-0.054544304
26	0xbbe56c8d	-0.0070014657
27	0x3c87722c	0.016533934
28	0xbe8d91fc	-0.2765044
29	0xbe9b786e	-0.30365318
30	0x3e0ab68a	0.13546196
31	0x3e91f3de	0.28506368
32	0x3e7dc667	0.24782716
33	0x3daabc21	0.08336664
34	0x3dab896e	0.08375822
35	0x3ddf5de9	0.10906584
36	0xbc1212d2	-0.00891562
37	0x3be4cfa7	0.006982762
38	0x3e1c34e9	0.15254559
39	0x3e59a279	0.21253385
40	0xbe2f7767	-0.17135392
41	0x3e414c95	0.1887687
42	0x3e83e218	0.25758433
43	0xbcf67cea	-0.03008886
44	0x3e5ec521	0.21754886
45	0x3eae01db	0.3398579
46	0x3d7c5515	0.061604578
47	0x3c12d72d	0.008962435
48	0xbd7561f0	-0.059907854
49	0xbd87e953	-0.066363
50	0xbdfa55e3	-0.12223413
51	0xbd7ee917	-0.06223401
52	0xbdd5877e	-0.10426234
53	0xbdfd1c26	-0.123588845
54	0xbc761ca2	-0.015021475
55	0xbd18a184	-0.03726341
56	0xbc4a310b	-0.012340794
57	0xbcd818f3	-0.026379084
58	0x3c330c2e	0.010928197
59	0xbd6d58b4	-0.057945922
60	0x3e89cefe	0.26915735
61	0xbe099e82	-0.13439372
62	0x3e926780	0.2859459
63	0x3d93614d	0.07196293
64	0xbe1be354	-0.15223438
65	0xbdd4a018	-0.10382098
66	0xbe370283	-0.17872052
67	0xbe17cf1c	-0.148251
68	0x3d8bafad	0.06820617
69	0xbe245b0c	-0.16050357
70	0x3d9aafd0	0.07553065
71	0x3ca72270	0.020402163
72	0x3c86f1ea	0.016472775
73	0xbe295470	-0.16536117
74	0x3deb0c19	0.11476917
75	0xbdd4bba0	-0.10387349
76	0xbd8b1e84	-0.0679293
77	0xbd30fc93	-0.043209624
78	0xbdc0408a	-0.0938731
79	0xbe096a3e	-0.13419434
80	0xbdbf9ca4	-0.09356049
81	0xbdd46d9b	-0.10372468
82	0xbd08b86f	-0.033379015
83	0x3d6d57c1	0.057945017
84	0xbd3e5bc6	-0.04647424
85	0xbc6fb5d9	-0.014630758
86	0xbe928d0e	-0.2862324
87	0xbd82f6d0	-0.06394732
88	0x3ce2a9e4	0.0276689
89	0x3d104e41	0.03523088
90	0x3e84efda	0.25964242
91	0xbdff3986	-0.124621436
92	0xbe92fb36	-0.28707284
93	0xbde75736	-0.11295931
94	0x3e52ca66	0.20585021
95	0x3e010c17	0.12602268
96	0x3c22e34a	0.009941885
97	0x3c84c02b	0.016204914
98	0xbc92e4ff	-0.01793146
99	0xbdd51271	-0.10403908
100	0xbd98a354	-0.07453027
101	0x3d2f6d63	0.04282893
102	0x3e0eccf0	0.13945365
103	0xbe0ada3f	-0.13559817
104	0xbceae154	-0.028671898
105	0xbd44b71c	-0.04802619
106	0x3cdecefb	0.027198305
107	0xbe217590	-0.15767503
108	0xbe6a605c	-0.2288832
109	0xbcd16de5	-0.025565097
110	0x3bd41ff0	0.006473534
111	0x3dfe6cce	0.124230966
112	0xbe390988	-0.18070042
113	0xbe5dafbf	-0.21649073
114	0xbe8e738a	-0.27822524
115	0xbe068b8d	-0.13139172
116	0xbd7ad7fc	-0.061241135
117	0x3e0c39f7	0.13693987
118	0xbe0c03bc	-0.136733
119	0xbde00d82	-0.109400764
120	0xbd91b893	-0.07115283
121	0x3e3bcb3f	0.18339251
122	0x3e215a68	0.15757143
123	0x3cc86134	0.024460413
124	0x3d1dda1d	0.038538087
125	0xbd473af5	-0.04864021
126	0xbc5d58da	-0.013509953
127	0xbe48944c	-0.19587821
128	0xbbe3ab15	-0.006947885
129	0xbdc0af88	-0.0940848
130	0x3dc93526	0.098245904
131	0x3d863d38	0.06554645
132	0xbdb523b5	-0.08844701
133	0xbddb7c0f	-0.10717022
134	0xbd793604	-0.06084253
135	0xbd2b9d63	-0.041898143
136	0xbd850f09	-0.06497008
137	0xbd749c66	-0.059719466
138	0xbe4caa10	-0.19986749
139	0x3ba71faf	0.0051002125
140	0xbe3a6085	-0.18200882
141	0xbead580f	-0.33856246
142	0xbf0fe21d	-0.56204396
143	0xbe3eb2ff	-0.18622969
144	0x3dc60faa	0.096709564
145	0x3bd21dff	0.006412267
146	0xbe28ad91	-0.1647246
147	0x3c91c09f	0.017792044
148	0x3d5bd005	0.05366518
149	0x3e46ccc5	0.19414051
150	0x3d9ca143	0.07647946
151	0x3e3b6454	0.18299991
152	0x3e85a2ff	0.2610092
153	0x3e021eb8	0.12707031
154	0x3e22a485	0.15883072
155	0x3c73be5b	0.014876927
156	0x3e369a62	0.1783233
157	0x3d90b72f	0.070661895
158	0xbbed439d	-0.007240726
159	0x3d96f391	0.07370675
160	0xbd984dc7	-0.0743671
161	0xbcdd42a9	-0.027009325
162	0x3a5c5f69	0.0008406551
163	0x3dd9d659	0.10636587
164	0x3d7ddb2a	0.06197659
165	0xbc11e34d	-0.00890429
166	0xbe0b779c	-0.13619846
167	0xbd8a77c1	-0.067611225
168	0x3ca2aa18	0.019856498
169	0xbe8ae816	-0.27130193
170	0xbdb63084	-0.08895972
171	0xbec27f80	-0.379879
172	0x3e76a5bc	0.2408666
173	0x3dcbe15f	0.099550955
174	0xbd3c98b6	-0.046044074
175	0x3c74c524	0.01493958
176	0x3d7b06fb	0.061285954
177	0x3e04badf	0.1296191
178	0x3dae5c46	0.085136935
179	0x3e5aa81a	0.21353188
180	0x3d394e17	0.045240488
181	0xbcd59746	-0.02607311
182	0x3ddbf4b5	0.107400335
183	0x3d8343e4	0.064094335
184	0x3d6e70d0	0.058213055
185	0xbdb95b2d	-0.090505935
186	0xbe7d8f70	-0.24761748
187	0xbc91ae26	-0.017783236
188	0x3e17a1a3	0.14807753
189	0xbd15d1c7	-0.036577012
190	0x3b9302d1	0.0044864197
191	0x3dbf0db9	0.09328789
192	0x3d49ea32	0.04929561
193	0xbd25fd99	-0.040525053
194	0xbde2b983	-0.1107054
195	0xbdaa95cb	-0.08329352
196	0xbdb52333	-0.08844604
197	0xbe839425	-0.25698963
198	0xbe3cc779	-0.18435468
199	0xbe67e0f9	-0.22644414
200	0x3e226db2	0.15862158
201	0x3deeea2b	0.11665758
202	0xbdd75717	-0.10514658
203	0xbde3be3f	-0.11120271
204	0xbcddd517	-0.027079148
205	0x3d53252a	0.051549114
206	0x3ea2b672	0.3177982
207	0x3d83d12f	0.06436383
208	0x3d449d65	0.048001666
209	0xbd3ae510	-0.045628607
210	0x3dcfd2f9	0.10147662
211	0xbd14172f	-0.036154922
212	0xbe25ac10	-0.16178918
213	0x3c54f9e8	0.012999035
214	0xbd294a83	-0.041330826
215	0xbe214e2c	-0.15752476
216	0xbd0d520e	-0.03450208
217	0xbc8bb674	-0.017054774
218	0xbe20381e	-0.15646407
219	0xbd150f8c	-0.03639178
220	0xbd7f1357	-0.062274303
221	0xbd64d1d7	-0.05586418
222	0xbda90fb9	-0.08254952
223	0x3da2647e	0.079293236
224	0xbe016f8d	-0.1264021
225	0xbe8305e8	-0.25590444
226	0xbe837098	-0.2567184
227	0x3e1f70fc	0.15570444
228	0x3e61ab63	0.22038035
229	0x3df080f9	0.117433496
230	0xbe007552	-0.12544754
231	0xbd89303e	-0.066986546
232	0x3bbed200	0.005823374
233	0x3d075abc	0.033045515
234	0x3e9c33be	0.30508226
235	0x3dc8f709	0.09812743
236	0x3db85fd5	0.090026535
237	0xbd0d8a97	-0.034555998
238	0x3d17c7ef	0.037055906
239	0x3c1551e7	0.009113765
240	0xbd8c3e39	-0.068478055
241	0xbd82349c	-0.06357691
242	0x3d90750c	0.07053575
243	0xbb837f86	-0.0040130047
244	0xbdd90b4c	-0.10597858
245	0xbdefa053	-0.11700501
246	0xbe4188ac	-0.18899792
247	0x3cca2d1f	0.024679719
248	0x3cf19052	0.029487763
249	0xbd37c2e6	-0.044863604
250	0x3aa49a99	0.0012558281
251	0x3d81740f	0.063209645
252	0x3e03ab8b	0.12858407
253	0xbe7787a9	-0.24172844
254	0xbdfa6d8b	-0.12227925
255	0xbd979c3b	-0.074028455

input_layer.bias f4 [128]
0	0x3e002343	0.12513451
1	0x3e6673f1	0.22505166
2	0x3e65f089	0.22455038
3	0xbe203b41	-0.15647604
4	0x3d9dc2b8	0.07703155
5	0xbe3f681a	-0.18692055
6	0x3e58a3f5	0.21156295
7	0xbe8562f2	-0.26052052
8	0xbe35b417	-0.1774448
9	0x3dd8e7a0	0.10591054
10	0x3e071485	0.13191421
11	0x3da4f0c8	0.08053738
12	0xbe1dcf7b	-0.15411179
13	0x3e48e4ed	0.19618578
14	0x3ea52dd8	0.32261539
15	0xbe5afba6	-0.21385059
16	0xbe6ecdca	-0.2332069
17	0x3e99bfe9	0.30029228
18	0xbe2c728b	-0.1684057
19	0xbe1a752a	-0.15083757
20	0xbde1f7de	-0.11033605
21	0x3e50f232	0.2040489
22	0xbe7799e2	-0.24179795
23	0x3dac0bad	0.084006645
24	0xbe6a0611	-0.22853877
25	0x3e38e2d3	0.18055277
26	0x3e0e8361	0.13917305
27	0xbe8b85dc	-0.27250564
28	0x3e0825d2	0.13295677
29	0xbe84e160	-0.25953197
30	0x3e3fd429	0.18733276
31	0xbe593fbf	-0.21215723
32	0xbe65cb6e	-0.22440884
33	0xbe5dc053	-0.21655397
34	0x3e389f76	0.1802958
35	0xbe514bf8	-0.20439136
36	0xbe80c9cd	-0.25153962
37	0xbe0fa2de	-0.14026973
38	0x3e4610da	0.19342366
39	0x3e352535	0.17689975
40	0xbe23d5d0	-0.15999532
41	0xbde69c38	-0.11260265
42	0xbd922822	-0.07136561
43	0x3e478bdd	0.19486947
44	0xbe79c2e1	-0.24390747
45	0x3e6272cb	0.22114103
46	0x3e165723	0.14681678
47	0xbe22e0fb	-0.15906136
48	0x3e34f8ec	0.17673081
49	0x3e9ee8b8	0.31036925
50	0x3e94f225	0.29090992
51	0x3e6fa62e	0.23403236
52	0xbe2bc77c	-0.16775316
53	0x3de05a1c	0.10954687
54	0x3db1d35c	0.08682892
55	0xbe45e222	-0.19324544
56	0xbd93f8cd	-0.07225189
57	0x3e196761	0.14980842
58	0xbe70015c	-0.23438019
59	0x3e9574c8	0.2919066
60	0x3e90adc7	0.28257582
61	0xbd21825a	-0.039430954
62	0x3e49389c	0.19650501
63	0x3e7da94f	0.24771617
64	0xbda614c7	-0.08109432
65	0x3e58be6b	0.21166389
66	0x3e347f9e	0.17626807
67	0xbe19a233	-0.1500328
68	0x3ddd0e2a	0.10793717
69	0x3e4d8a4b	0.20072286
70	0xbe28887b	-0.16458313
71	0xbe467edb	-0.19384329
72	0x3da79892	0.08183397
73	0xbe9d8e18	-0.3077247
74	0x3e6ffc6d	0.23436137
75	0xbe2cfb59	-0.16892757
76	0xbde4d87b	-0.11174103
77	0x3e63e16a	0.22253957
78	0xbe5a6175	-0.2132624
79	0xbe7ef3af	-0.24897645
80	0x3e32eaf5	0.17472441
81	0xbe5657ba	-0.20931903
82	0x3ddadd70	0.10686767
83	0x3e433521	0.19063236
84	0x3e6c24c9	0.23060907
85	0xbe6d0322	-0.23145726
86	0xbe44f4bb	-0.19233982
87	0xbe1885ce	-0.14894792
88	0x3b6f75f2	0.0036538807
89	0xbe0467d2	-0.1293023
90	0xbde08e83	-0.10964682
91	0x3e17555e	0.14778659
92	0xbe66931b	-0.22517054
93	0x3e542149	0.20715822
94	0x3e4b496e	0.1985223
95	0xbe97aec2	-0.29625517
96	0xbe62d2a3	-0.22150664
97	0xbdd2dfd7	-0.102966
98	0xbe2697c5	-0.16268833
99	0x3da93864	0.08262709
100	0x3dfcfffa	0.12353511
101	0xbe3165f2	-0.17324045
102	0x3dddbf7d	0.10827539
103	0xbb226e01	-0.0024784806
104	0xbeb3b034	-0.3509537
105	0xbe5545b7	-0.20827375
106	0xbe884e51	-0.2662225
107	0xbe9efd1a	-0.31052476
108	0xbe8305e2	-0.25590426
109	0xbd6f0bb2	-0.058360763
110	0x3e44bb9f	0.19212197
111	0x3e2330dc	0.15936607
112	0xbe4b6de0	-0.19866133
113	0x3e32487b	0.17410462
114	0x3dd6118a	0.10452564
115	0xbc6443b3	-0.013932156
116	0xbdc47d10	-0.09594166
117	0x3d2904d9	0.04126439
118	0x3e40ed26	0.18840465
119	0xbd865fcc	-0.065612406
120	0x3ca606a2	0.020266835
121	0x3e673cac	0.22581738
122	0xbde16dab	-0.11007246
123	0x3e719dad	0.23595305
124	0x3e473ca9	0.19456734
125	0x3de81421	0.11331964
126	0xbe291f71	-0.165159
127	0xbe82a17a	-0.25513822

output_layer.weight f4 [9, 128]
0	0xbdd5c312	-0.10437597
1	0xbcdaae97	-0.026694579
2	0xbdfe124b	-0.12405833
3	0x3dd9123d	0.10599182
4	0xbdc2accb	-0.09505614
5	0x3c318d8c	0.01083697
6	0x3c5cdb2b	0.013479988
7	0x3bb190a4	0.005418854
8	0xbabc40ac	-0.0014362535
9	0xbc87f6b7	-0.016597135
10	0x3cbc7a6c	0.023007594
11	0xbdaa88d8	-0.08326882
12	0xbdb16c6e	-0.086632594
13	0x3dae39b0	0.08507097
14	0x3bb8e339	0.0056423214
15	0x3cbc147c	0.022958986
16	0xbda39624	-0.079876214
17	0x3d6a4d49	0.05720261
18	0x3d4470fd	0.047959317
19	0xbdd73810	-0.1050874
20	0xba97da8c	-0.0011585518
21	0x3d3cbf24	0.046080723
22	0x3cbd7edb	0.023131778
23	0xbda21998	-0.07915038
24	0x3c771821	0.015081436
25	0xba56d9b4	-0.00081958924
26	0xbdbb0c24	-0.09133175
27	0x3cefc13f	0.029266952
28	0xbdd5db2c	-0.10442194
29	0x3da58917	0.080827884
30	0xbdcae8cc	-0.09907684
31	0x3d83670c	0.06416139
32	0xbd6bef26	-0.057601117
33	0xbe22fcc4	-0.15916735
34	0xbe462ed6	-0.19353804
35	0x3d8c9cc6	0.0686584
36	0x3d0b9244	0.034075037
37	0xbd320c8b	-0.043468993
38	0x3d9f05a1	0.077647455
39	0x3c6e3974	0.014540065
40	0xbd2f355e	-0.042775504
41	0x3bfb3a69	0.007666875
42	0xbe000940	-0.12503529
43	0x3d02bf33	0.031920623
44	0x3c8796eb	0.016551455
45	0xbdc4e998	-0.09614867
46	0xbd83188b	-0.064011656
47	0x3dbe1f49	0.09283311
48	0xbc88ccf0	-0.016699284
49	0xbda31306	-0.07962613
50	0xbdac96e7	-0.0842722
51	0xbdbee868	-0.09321672
52	0x3d663bee	0.056209497
53	0xbdd2c868	-0.10292131
54	0x3cabc22f	0.020966617
55	0xbd7ea730	-0.06217116
56	0x3d3c51b5	0.04597636
57	0xbda0602c	-0.07830843
58	0x3e187985	0.14890106
59	0xbe44e726	-0.19228801
60	0xbe2992d9	-0.16559924
61	0x3b6f264f	0.003649134
62	0xbde904ef	-0.11377894
63	0xbcf7bab1	-0.030240389
64	0x3d84288f	0.064530484
65	0x3c8d14cc	0.01722183
66	0xbd4b49c7	-0.049630906
67	0xbd8a1f49	-0.067442484
68	0xbd3b9ceb	-0.045803946
69	0xbd0bb1fc	-0.034105286
70	0x3d91c9cd	0.071185686
71	0x3de65454	0.11246553
72	0x3d09386f	0.033501085
73	0x3dd28620	0.102794886
74	0xbdd3f9ff	-0.10350417
75	0xbd4ca8f3	-0.04996581
76	0xbd8d0a51	-0.06886733
77	0x3d3cf3bc	0.04613088
78	0x3def369b	0.11680337
79	0x3c95df41	0.018294932
80	0xbdd113b4	-0.10208836
81	0xbc894f62	-0.016761485
82	0xbda39209	-0.07986838
83	0xbe0c38aa	-0.1369349
84	0x3dad94a5	0.08475617
85	0x3d9bfc8a	0.076165274
86	0x3da003c9	0.07813222
87	0x3d84c882	0.06483556
88	0xbc166342	-0.009178938
89	0x3d4008f9	0.046883557
90	0xbd7a98a8	-0.06118074
91	0xbcb5e2af	-0.022202818
92	0xbbb77df6	-0.0055997325
93	0x3d90c079	0.07067961
94	0xbe3928ef	-0.18082021
95	0xbdec4c7e	-0.11538027
96	0x3dd031c1	0.1016574
97	0xbd1fed49	-0.039044652
98	0x3e1370dc	0.14398521
99	0xbe5ba6dc	-0.2145037
100	0xbdd6b5c5	-0.104838885
101	0x3da8e030	0.08245885
102	0x3d1fedff	0.03904533
103	0xbdefa9a6	-0.1170228
104	0xbd1cc607	-0.03827479
105	0x3d13d0ad	0.03608768
106	0x3e6bce50	0.2302792
107	0xbd82184b	-0.0635229
108	0xb980911d	-0.0002452218
109	0xbaa6c002	-0.0012722018
110	0x3d659a1d	0.056055177
111	0xbd442e30	-0.04789561
112	0xbd184212	-0.037172385
113	0xbd9f3036	-0.077728674
114	0x3d15842b	0.036503
115	0x3db1e842	0.08686878
116	0xbbb5188e	-0.005526609
117	0xbce8ec8a	-0.028433103
118	0x3cdf4262	0.027253333
119	0x3c6ebe81	0.014571787
120	0x3d54d6e3	0.051962744
121	0x3dadfd9e	0.08495639
122	0xbc9afd2d	-0.018919552
123	0xbcd4337d	-0.025903458
124	0x3dc5f3bf	0.096656315
125	0xbda9f029	-0.0829776
126	0x3e01622b	0.12635104
127	0xbdbb0a44	-0.091328174
128	0x3e57b1f3	0.21063976
129	0x3b5eea13	0.003401403
130	0x3e730aaa	0.23734537
131	0x3e41c877	0.18924128
132	0x3e9b5a2c	0.30342233
133	0xbe90b7ca	-0.2826522
134	0x3cc70479	0.024294125
135	0x3e2dc2f4	0.169689
136	0x3e8be79b	0.27325138
137	0xbeb72835	-0.35772863
138	0xbe3b9d01	-0.18321611
139	0x3e4a5e27	0.19762479
140	0x3da84399	0.08216018
141	0x3dc5f013	0.09664931
142	0xbeaa2e0b	-0.33238253
143	0x3ee649c0	0.44978142
144	0x3c811ff1	0.015762301
145	0xbda313b8	-0.079627454
146	0xbd058bb1	-0.032603923
147	0x3e2705eb	0.16310851
148	0xbba0e441	-0.0049100225
149	0xbeccf982	-0.4003411
150	0x3ed36dce	0.41294712
151	0xbe15dbd0	-0.14634633
152	0x3eb0748b	0.34463915
153	0xbecd9eb8	-0.40160155
154	0x3e8677d9	0.26263312
155	0x3e36f1c9	0.17865671
156	0xbece926e	-0.40346092
157	0x3e15c2fb	0.1462516
158	0xbeb36a69	-0.35042122
159	0xbe3815be	-0.17977044
160	0x3cab0d71	0.020880433
161	0x3de9d03d	0.114166714
162	0xbee62d8f	-0.44956633
163	0x3e85473a	0.26030904
164	0xbe189d7d	-0.14903827
165	0xbdcf00a7	-0.10107546
166	0xbea6abd4	-0.3255297
167	0x3df92e84	0.12167075
168	0x3e03ad84	0.1285916
169	0x3e3ed363	0.18635325
170	0xbd75ef41	-0.060042623
171	0xbe7c6b3d	-0.24650283
172	0x3eaceb9f	0.33773515
173	0xbe07167e	-0.13192174
174	0xbd68530d	-0.05671983
175	0x3d967199	0.07345886
176	0xbe4acbdc	-0.19804329
177	0x3e72f70a	0.2372705
178	0xbdcf319b	-0.10116883
179	0xbe20aaa5	-0.15690096
180	0x3e2f27fe	0.171051
181	0xbe8393c2	-0.25698668
182	0x3e6e0a0a	0.23246017
183	0x3e18194c	0.148534
184	0xbda0e35a	-0.07855864
185	0x3d2141a9	0.03936926
186	0xbda71055	-0.08157412
187	0x3e5cc040	0.21557713
188	0x3b1c72ce	0.002387214
189	0xbdaa0663	-0.083019994
190	0x3e5e1a09	0.21689619
191	0x3e29c05d	0.16577287
192	0x3d649851	0.055809323
193	0xbe091fa5	-0.13390978
194	0xbd9b9ad3	-0.0759789
195	0x3c32c315	0.010910769
196	0xbcc50fa9	-0.024055319
197	0xbeb8dd12	-0.36106163
198	0xbe684d67	-0.22685777
199	0xbe6d9554	-0.23201495
200	0xbd8fae7d	-0.07015703
201	0x3eddb71c	0.43303764
202	0x3d7377d1	0.059440438
203	0x3d823c1e	0.06359123
204	0xbe68431e	-0.22681853
205	0xbe6f8dee	-0.23393986
206	0x3e1f3669	0.155481
207	0x3d9dfb7c	0.077139825
208	0xbcbd052e	-0.023073759
209	0x3d8c7876	0.068589136
210	0x3dc50bf2	0.09621419
211	0xbe4e955f	-0.20174168
212	0xbe0b3aee	-0.13596699
213	0x3e6d872e	0.23196098
214	0xbe0911fd	-0.13385768
215	0x3c1faa09	0.009745129
216	0xbd7bffda	-0.061523296
217	0xbe765e8b	-0.24059503
218	0xbdce50f1	-0.10074032
219	0x3d8fc0aa	0.0701917
220	0x3e3d090d	0.18460484
221	0xbdccc2b9	-0.09998078
222	0xbe3a7abd	-0.18210883
223	0x3dc861b0	0.097842574
224	0xbe9bfe24	-0.3046733
225	0x3d3f37e5	0.046684165
226	0x3b4635e1	0.0030244517
227	0x3ebe87a3	0.37212858
228	0xbe78d4b7	-0.24299894
229	0x3e287a1e	0.16452834
230	0x3e2569f9	0.16153707
231	0xbe962ff5	-0.29333463
232	0xbdf38119	-0.11889858
233	0x3e90c851	0.2827783
234	0x3e68b396	0.22724757
235	0x3e272bb7	0.1632527
236	0x3e68e8a3	0.22744994
237	0x3d1c34a4	0.03813614
238	0xbea0f171	-0.31434205
239	0xbdfb4966	-0.12269859
240	0x3eb59c07	0.35470602
241	0xbe90f833	-0.2831436
242	0xbd09c427	-0.03363433
243	0x3e43663a	0.19081965
244	0x3e28d090	0.1648581
245	0x3e706692	0.23476627
246	0xbe3b86d9	-0.18313159
247	0xbc240978	-0.010012023
248	0x3c860d94	0.016363896
249	0xbeb15004	-0.3463136
250	0x3e4acc19	0.1980442
251	0xbd7f7a12	-0.062372275
252	0x3e514380	0.20435905
253	0xbe2368c7	-0.15957938
254	0xbde81cca	-0.11333616
255	0xbe6f0323	-0.2334104

output_layer.bias f4 [9]
0	0xbd032e14	-0.032026365
1	0xbe15317d	-0.1456966
2	0xbd226157	-0.03964361
3	0x3e222b05	0.15836723
4	0xbe41cf54	-0.18926746
5	0x3e32f0ed	0.17474718
6	0x3e6bb8fb	0.23019783
7	0xbd94f942	-0.07274105
8	0x3e401d17	0.18761097
