src/models/linear_fashionmnist_holdout_[8]_pretrained_frozen.pt (torch, 408667 bytes, 4 tensors)

input_layer.weight f4 [128, 784]
00000000: f6e7 86bc 5c30 8b3c db05 543c 1475 a0bc
00000010: f3e9 fe3b 21ed d83c e69c 2d3c f0c6 5f3d
00000020: 054e ab3d 7ebc a6bd 6c18 9ebc f1f2 133e
00000030: 401b 05be d416 8a3e f1a5 9a3e 1a1e 67bd
00000040: b8c7 3bbc 9ac7 93bb 2c81 0abe e4e3 bb3d
00000050: f8a4 d93d 8196 3e3d 9889 353d 61f0 c5bb
00000060: 24b3 413c 6831 463b cf4c d43c 2c72 873c
00000070: 18e0 0a3d e74c 873c 3772 d33c 671b 41bd
00000080: 2d5a 61bd 712c a9bc c14d a6bc e521 67bd
00000090: 79e7 0fbe 57d6 62bc f0ce 643e c080 2b3e
000000a0: 7232 4dbe ce09 3d3d 7eaf 203e a9ba 50bd
000000b0: 9776 683e f78f 9c3e 5f53 e93d 04c1 803d
000000c0: bd2e 91bb 5c26 32bc 0436 94bd d8fa b3bd
000000d0: 961e 1fbd 3739 2dbd 2311 c7bc f94c de3c
000000e0: 0b31 4abc 9c4d 75bc 003d 433c c280 c9bc
000000f0: 2319 9bbd 6af4 28bd 5c6b 17bc 15be dfbd
00000100: bfe4 f4bd 0f0e 90bd abbf b8bd 8244 f6bd
00000110: 6e32 353d e138 b5bd c672 ff3c 49fc 733d
00000120: e338 723d ca75 e3bd abf5 fd3d 78ee 9cbd
00000130: 9e63 52bd 16d8 2abd 3e2e 1abd 60f1 c7bc
00000140: 8600 c6bd 7777 e5bc d6a3 0a3d 4de5 063d
00000150: 0e65 a1bc b843 b6bb 7cee eebc 566f 1abc
00000160: 1ea5 953c 82bf 5bbd e7dc 53bc 4265 3fbe
00000170: 1aea 35be a14e 34bd 12b8 273e bb9a c03d
00000180: dc1b ba38 1878 3e3d d45e c63d b9b8 fa3c
00000190: 73a3 91bd 4d81 2a3d 03ee f73d 80f0 1bbe
000001a0: 31c1 e9bc 9864 29bd 9ae8 f03b 0950 eebc
000001b0: 69f0 b3bd 785b 48bd 8ab7 ee3c 1085 c23c
000001c0: e4e1 313c 2eee 9a3b aaa0 57bc 88e7 16bd
000001d0: 2512 633d 094d 5cbd 6cb0 02be 2126 b7bd
000001e0: 6f52 fdbd 03d5 5e3d d21d 623d b6a0 02bd
000001f0: caaa 283b d628 1d3d 9757 f63d c8e6 dabd
00000200: 3b31 50bd 6a2e c6bd 5d53 5f3d 5efc d7bb
00000210: 11c0 28bd ae09 d1bd b815 71bd 7b56 32bc
00000220: 2e51 90bc 2e51 bfbd 9fc5 02bd f304 8a3c
00000230: 04ae 3b3d 1a06 6fbc 124b 28bd 20eb 3dbc
00000240: d41c b33c 1b04 babb 08cb 1fbe 6c0f 6a3d
00000250: af14 1ebd cf74 a73d a34d d7bc 9522 063e
00000260: 7f70 0a3e e9fa fe3d bdb3 343e 4bd6 30bd
00000270: b897 a53d c53d 1bbb afe5 1ebc 1665 dc3c
00000280: 235b 9fbb 5104 01bd eb81 78bd 6b53 1f3d
00000290: ecbc 01bc 4398 63bd 9507 81bc 47eb 0abc
000002a0: 18aa a23c 8ddb 24bd 666e 3ebd f9fc 2ebc
000002b0: 691f dd3c 4f11 c5ba 9270 ab3c be06 633d
000002c0: 3f5b 7fbc 2741 05bd 38f8 cbbd 4f6d d83d
000002d0: de59 73bd 4b73 67bc 099d 053e ec9f 813d
000002e0: 593a 213d 4064 1ebd affb 33be bb5c 2fbd
000002f0: 0467 b33d a555 21bd 4e71 363c a630 873d
00000300: f501 0bbc eadd dfbd 56c6 0dbd f387 d33c
00000310: 2ca7 043d 689d e4bc f5ea f0bb e91f a83c
00000320: 7a2f 063d c553 063d 78f3 843a e0fa 1bbd
00000330: 0d8b 05bd ed23 fabc d377 ea3d da97 27bd
00000340: c09b 85bc b89c 8bbc 390e 3b3e dc1d 133c
00000350: 88fe 5dbd ff47 e03a 566e 07bd c301 e4bd
00000360: 5253 aa3c 2533 cfbb 67a6 58bd 856e 483d
00000370: ddb9 c53b 855b 0dbd 3e40 94bd 37a8 1a3d
00000380: 22ba fd39 3907 b6bc 331c f1bc 051b 1a3c
00000390: d116 693d a874 dc3c 94b4 bfbd 058f 76bd
000003a0: eb19 203d 83f6 0c3c 8fda 1c3e d2db c23c
000003b0: e78c 92bc 86f7 853c 793d b43d 377a 123d
000003c0: cc9d 5f3b a358 7ebd 49dc 4d3d cff9 e6bc
000003d0: ab01 a3bd 8859 7bbd cc5f afbd 75e9 b73d
000003e0: 1dc1 043c 2e92 45bd 6196 4dbc 1824 66bc
000003f0: fc3a bc3c 1d9b 21bd 8f7e 43bb 3156 a5bc
-0.01646803 0.016990833 0.012940849 -0.019587077 0.0077793538 0.02648026 0.0105964895 0.05463308
0.083644904 -0.08141421 -0.019298755 0.14448144 -0.12998676 0.2697054 0.30204728 -0.05642519
-0.011461191 -0.0045098783 -0.13525838 0.09174326 0.106271684 0.04653025 0.044320673 -0.0060406183
0.011822496 0.003024185 0.025915531 0.016533934 0.03390512 0.016516162 0.025811298 -0.047145274
-0.05501764 -0.020651074 -0.020300748 -0.05642881 -0.14053144 -0.013845048 0.22344565 0.16748333
-0.20038775 0.04615193 0.15691945 -0.050959263 0.22701488 0.30578586 0.11392855 0.06286815
-0.0044306205 -0.010873403 -0.07236865 -0.08788079 -0.03884753 -0.042290892 -0.024300164 0.027136313
-0.012340794 -0.014972117 0.011916399 -0.02459753 -0.07573154 -0.041248716 -0.009241905 -0.10924927
-0.11957692 -0.070339315 -0.09020933 -0.120247856 0.044237547 -0.088487394 0.031182658 0.05956677
0.059136283 -0.11106451 0.12400373 -0.07662672 -0.051364534 -0.04170998 -0.037641756 -0.024407089
-0.096680686 -0.028011067 0.033847652 0.032933522 -0.019701507 -0.005562272 -0.029166453 -0.009425959
0.01826721 -0.053649433 -0.012931085 -0.1869097 -0.17765084 -0.0440203 0.16378811 0.094045125
8.87436e-05 0.04650125 0.09686056 0.03060566 -0.071112536 0.041627217 0.12105944 -0.15228462
-0.028534504 -0.0413557 0.007351947 -0.029090898 -0.08786089 -0.048915356 0.029140253 0.02374509
0.010857079 0.0047281003 -0.013160864 -0.0368419 0.055437226 -0.053784404 -0.12762612 -0.089428194
-0.123692386 0.054402363 0.05520422 -0.031891547 0.0025736564 0.038369022 0.12028425 -0.10688549
-0.0508282 -0.096768215 0.05452286 -0.006591364 -0.041198794 -0.102069244 -0.058858603 -0.010884876
-0.017616834 -0.09341656 -0.031926747 0.016848063 0.04582025 -0.014588857 -0.041087218 -0.011591703
0.021864332 -0.005676759 -0.15604794 0.057143614 -0.038593944 0.08176576 -0.026282137 0.1309913
0.13519476 0.12450201 0.1764669 -0.043173116 0.08085579 -0.002368794 -0.0096983155 0.02690367
-0.0048631593 -0.031498257 -0.060670774 0.038897913 -0.007918578 -0.05556513 -0.015750686 -0.008478946
0.019856498 -0.040248442 -0.046492003 -0.010680431 0.026992517 -0.0015035066 0.020927701 0.05542635
-0.01558572 -0.032532837 -0.09959453 0.10567724 -0.059411876 -0.014126609 0.13048185 0.06329331
0.039362285 -0.038669825 -0.17576478 -0.042813044 0.08759883 -0.039388318 0.011135412 0.06601076
-0.008484353 -0.109309986 -0.034612976 0.025821662 0.03238599 -0.027907088 -0.007352228 0.020523028
0.03276012 0.032794733 0.001014336 -0.03808105 -0.032603312 -0.030534709 0.11448636 -0.0409163
-0.016309619 -0.017042503 0.18267144 0.008979287 -0.054197818 0.00171113 -0.03306421 -0.111331485
0.020791683 -0.0063232356 -0.05289307 0.048933525 0.0060341195 -0.034511108 -0.07238816 0.03775808
0.000483946 -0.02222024 -0.029432392 0.009405856 0.056906525 0.026911095 -0.093606144 -0.060194988
0.039087217 0.008603695 0.15317748 0.02378646 -0.017889453 0.01635338 0.088007875 0.035761084
0.0034121154 -0.06209625 0.05025891 -0.02819529 -0.079593025 -0.06136468 -0.08563194 0.08980075
0.008102682 -0.04823511 -0.01254806 -0.014046691 0.022977345 -0.03945457 -0.0029830073 -0.0201827

input_layer.bias f4 [128]
00000000: 5079 053c 336a 04bd 14ab 403c 63b9 3c3c
00000010: f046 df3b 6dca 033d 7592 6ebb 38cb fa3c
00000020: 79a0 763c 2992 71bb 89f1 45bd fb9c 613c
00000030: 703b ad38 853f d2bb 251b aebc 4961 74bc
00000040: f754 06bd fe42 843c 59bb f3bc 6b57 3dbc
00000050: 5517 febb 8c50 d53c 9f70 883c c5ae 12bd
00000060: 582a 19bd 4cee 1d3b 0ca8 a3ba 2960 94bc
00000070: 9e08 76bb a1a7 42bc f2b6 3dbc 78bb d0bb
00000080: 7a8a efbc 59fc 30bd 8cfd 37bd d477 083d
00000090: 1db8 183d ec0a c6bb fe63 ec3c 265c bd3c
000000a0: 2c07 f33c afa4 243d 48f5 723c a055 a4bc
000000b0: fa18 a73c 8ca5 703c 135f c0bc b49c 4c3d
000000c0: e3a4 d93b 6a23 423d 0c60 123d d0e2 6abc
000000d0: d0f0 c6bb eb52 17bd c09f fbbc 8fbf 86bc
000000e0: 7190 1a3d b7f4 8fbc 5cbc 2e3c 0e5b ac3b
000000f0: 286a dbbc c00e f7bc fed9 2fbc a888 3c3b
00000100: 9c47 543d 4013 d7bc 0e53 ab3b 8fb9 0ebd
00000110: bc1d f9bc 3364 c7bc 77a7 db3a 4a55 c7bc
00000120: 3b8a 353b 9c55 cabb 4fda e7ba c68c 2fbd
00000130: aeb3 26bd 6add debb 1f48 123c d19f e53c
00000140: 5629 fe3b 3d8c 8e3c 5a29 8dbc eb67 97bc
00000150: d805 7b3d 2e24 1c3c f7c0 61bc 0178 debc
00000160: 82bf 91ba 4d2a 313d 0e1b 093d a2f7 233c
00000170: f513 11bc 6e19 63bc a9c9 4f3b a200 72bd
00000180: 9016 993c 3c37 fc3c a2e2 413d a348 c63c
00000190: 7894 61bd f02a ea3c 0860 0c3d eadc 7a3a
000001a0: fac7 3ebd 1133 293b fe6a 18bd 394e a3bc
000001b0: 2104 bc3b 61c0 fa3c 9057 03bc 8938 e6bc
000001c0: 8e8f 12bc 09c0 48bd 89b6 27bd b3ed 18bd
000001d0: b4e2 73bc ba14 aebd eeaa 4f3d 7403 d7bc
000001e0: 8b3d 2ebd c32d 0d3b 60ed 9dbc 55d6 4dbb
000001f0: 60f1 9b3c 07b2 eabc cb75 d7bc 6b91 8abc
0.008146599 -0.032327842 0.011759538 0.011518809 0.0068138763 0.03217547 -0.0036403213 0.03061448
0.015052908 -0.00368608 -0.04832605 0.013770337 8.260354e-05 -0.0064162635 -0.021253178 -0.014915773
-0.032795873 0.016145226 -0.02975242 -0.011556487 -0.0077542462 0.026039384 0.016655264 -0.035811204
-0.037393898 0.0024098335 -0.0012485995 -0.018112259 -0.0037541757 -0.011880786 -0.011579262 -0.0063700043
-0.029240835 -0.043209407 -0.044919536 0.033317402 0.03728496 -0.0060437825 0.028856274 0.023115229
0.029666506 0.040196117 0.014828987 -0.02006036 0.020397652 0.014687907 -0.023482835 0.04995413
0.0066419705 0.047397055 0.03573613 -0.014336303 -0.0060711876 -0.03694431 -0.030715823 -0.016448764
0.037735406 -0.017572744 0.010665026 0.005259878 -0.026784018 -0.0301584 -0.010733126 0.0028767977
0.051826105 -0.026254296 0.0052284067 -0.03484493 -0.030409686 -0.02433977 0.0016758282 -0.024332661
0.00277008 -0.006174756 -0.0017688962 -0.04285886 -0.0406987 -0.006801297 0.008928328 0.028030308
0.0077563925 0.017400855 -0.017231632 -0.01848217 0.06128487 0.00953011 -0.013778917 -0.027156832
-0.0011119696 0.04325323 0.033473067 0.010007771 -0.008854856 -0.013861043 0.0031705892 -0.059082635
0.018687516 0.030788057 0.047335275 0.024204558 -0.05507323 0.028584927 0.03427127 0.0009569662
-0.04657743 0.0025817791 -0.03721141 -0.01993476 0.005737797 0.030609312 -0.008016482 -0.02810313
-0.008945359 -0.049011264 -0.040945563 -0.037336063 -0.014885593 -0.08500047 0.05070012 -0.026246764
-0.04253916 0.0021542169 -0.019278228 -0.003140827 0.019035995 -0.028649343 -0.026301285 -0.016915044

output_layer.weight f4 [9, 128]
00000000: 2771 6cbd 4915 1cbd 7523 babd 74f4 573d
00000010: 6ef1 e2bc baac 11bd 368c 1c3d ef2c 953b
00000020: 71dc a5bc fb94 a1bc 2b0a dc3c aea6 acbb
00000030: d62e 81bc b271 47bb 6310 4d3c 55eb 31bd
00000040: 01ec a7bd d597 323d a076 533c bb89 aabc
00000050: 91ff 8bbc 1cd1 853d c38c 383d a989 b7bd
00000060: 3627 153c 2ebe eb3c bdda 08bd 2b39 3b3d
00000070: d9c4 0cbd 5c6f 1a3d 133d afbd a082 dd3b
00000080: fdc5 a4bd 4481 75bd 821c cfbd 0198 743d
00000090: 4486 a23c 2956 c2bc 2a9c a43d dd38 b13d
000000a0: b88c 07bc f2c8 f93c eae8 46bd 209b 8ebc
000000b0: 0748 a63b 76ad 2abb d439 fabc ce71 803d
000000c0: 8a0d 8abc 66e5 bd3c 75ae 75bc c6e7 97bd
000000d0: 4c24 943c 7211 77bd 8d66 89bc 506b 65bd
000000e0: 9632 b43c 8007 c1bc 3900 923d 0990 a1bd
000000f0: 35fc 71bd f0a8 80bc a812 9fbc 84db 0cbc
00000100: aa39 203d d21e 293d 06d5 9abb b0c4 96bd
00000110: d995 09bc 0298 e03c ecf9 f7bb 4175 623d
00000120: 1297 223d 807a 2e3d 6a4f 82bd b825 eabb
00000130: 6919 8fbc ab14 f73c f7ae 003c bb31 71bc
00000140: c718 82bb dd3e 68bd a59c 6bbd 000b 17bd
00000150: 17cd 573d e903 1a3d fffd d53c 3748 adbb
00000160: 13d7 a1bc 0216 013d 9e73 14bd e576 87bc
00000170: 1ae2 26bc c869 373d 1bf5 a0bd cefd c6bd
00000180: c467 823d 467b 33bd a0f8 543d cf17 48bc
00000190: 9ea3 afbd 07c4 9e3c 58cd 1d3d 24e1 d0bd
000001a0: 9a18 9dbc 6fee 7e3d 39b5 583d 9b54 03bd
000001b0: e91e 75bc a158 88bc 507d db3c 1f5f 4b3c
000001c0: b202 a1bc a353 54bd d6d8 fd3c 7b0a a63b
000001d0: 64ea 3c3d bd73 06bd 0a6e 2a3d 82cd af3c
000001e0: c014 2b3d 1c33 823d 7993 813b b9c6 febb
000001f0: 92b3 3ebc 226c 26bd b4a3 513d 1e5f 3dbd
00000200: cb62 f73d adf1 b8bc d954 bc3d 3fde 8b3c
00000210: 949a bb3d bd68 c6bd 3fb2 aa3d 2055 a63c
00000220: 42d9 ff3c 4d3f f4bd f530 0abd fcbb 4a3d
00000230: 9241 c6bc 0cc1 7d3b 7b70 5ebd 11a1 b83d
00000240: 4136 f8bc 1de9 8dbb fde3 27bd 03d7 d73c
00000250: cd32 aebc fcf2 52bd 3369 ba3d 41ec 2bbd
00000260: ca00 753d f47e 86bd 2738 c83d c116 593d
00000270: 31bb 9ebd 13d1 d93c 9e6f 88bd 4b32 9fbd
00000280: 5dea 4bbd 54a3 a93d 47c4 2dbe 3c34 f43d
00000290: 651f 43bd 946f fbbd 5243 95bd b221 b23d
000002a0: 8afa 1c3d 5285 3a3d bf99 dabd 5914 11bd
000002b0: b567 9f3d 5d2f d9bc 0ed1 7b3c 19e9 ae3c
000002c0: b0ee 83bc 792d a93d 7648 8cbc f050 8dbd
000002d0: a589 bd3d c111 7abd 0aab ed3d dca1 bebc
000002e0: 1913 c8bd 7eac e13c 2f34 d6bc 684c d23d
000002f0: f4a5 e5bb 2438 cebc ee7f 8f3d 7f89 703d
00000300: 37f4 803c 9c57 c93c 605a 323c 57ec 4bbd
00000310: 69f9 3f3d 3574 6ebd dde6 cfbd aa8c 15be
00000320: 2e53 613c 0910 0a3e 9613 223d 0858 43bc
00000330: 0aa0 9fbd 99a2 1cbd 42fa 4d3b c11a 1c3d
00000340: 9dd8 8f3d 0273 35bd 06c9 683d 35c9 d7bc
00000350: a1e7 cabc bbad 803d 2df1 9bbd ab74 f0bc
00000360: 6de9 37bd 5e1d 61bd 4ce3 aabc d75b 1c3d
00000370: 98e3 f53b 479f 0ebd 0052 d2bc 7c8b 3abc
00000380: 726f f6bd 2535 37bd 565c 46bc 0a02 c23d
00000390: 3b26 88bd e6f0 563c f5bf ae3d b09c d8bd
000003a0: dbdb 7ebd e638 ae3d 4ce2 b63d 28a5 1b3d
000003b0: c73d 6e3d 8ad3 3b39 9448 83bd 926b eebb
000003c0: 3ad1 ee3c 5002 48bd 13c8 1a3d 812f df3c
000003d0: 3be1 c23d d77a d63d 257e d0bc f394 473d
000003e0: 8a10 6c3d 5898 84bd b7f8 613d ec07 9bbb
000003f0: 5cc4 083d b47e 58bd a6c7 50bd 8bc1 0abe
-0.057725098 -0.038106237 -0.09088794 0.052723363 -0.027703013 -0.035565116 0.038219653 0.0045524756
-0.020246716 -0.01972436 0.026860317 -0.005268893 -0.015769403 -0.0030432758 0.012516114 -0.04343732
-0.08199311 0.04360183 0.0129067 -0.020817628 -0.017089637 0.06534025 0.045056116 -0.089618035
0.009103587 0.028777208 -0.03341173 0.045708816 -0.034367416 0.037703857 -0.08556571 0.0067599565
-0.08045576 -0.05993773 -0.10112859 0.059715275 0.019839413 -0.023722725 0.080375984 0.08653424
-0.008273296 0.030491326 -0.048561968 -0.017407954 0.0050745043 -0.0026043332 -0.030545153 0.062717065
-0.016852159 0.023180675 -0.014995207 -0.07417254 0.018083714 -0.06031937 -0.016772533 -0.056010544
0.021996778 -0.023563147 0.07128949 -0.07888801 -0.059078414 -0.015705556 -0.019418076 -0.0085972585
0.039117493 0.04128916 -0.0047251014 -0.07361734 -0.008397543 0.027416233 -0.007567635 0.055287603
0.039694853 0.042597294 -0.06362803 -0.0071456097 -0.017468171 0.030161222 0.007854215 -0.014721329
-0.003970239 -0.056700576 -0.057522435 -0.036875725 0.052685823 0.037601385 0.026122091 -0.0052881497
-0.019755876 0.03151513 -0.036243074 -0.016536186 -0.010185743 0.044778615 -0.0785925 -0.09716378
0.06367448 -0.043818735 0.05199492 -0.012212708 -0.085761294 0.019380582 0.03852591 -0.10199192
-0.01917677 0.062239107 0.052907202 -0.032063108 -0.014960983 -0.016643824 0.026793152 0.012412815
-0.019654606 -0.051837575 0.030987184 0.0050671673 0.04612197 -0.03282522 0.041608848 0.021460298
0.041767836 0.063574046 0.0039543477 -0.0077751544 -0.011639493 -0.040630467 0.05118151 -0.04623329
0.1207939 -0.022576177 0.09195871 0.017073749 0.09160343 -0.09687946 0.08334779 0.020304263
0.031231526 -0.11926136 -0.033738095 0.049495682 -0.024201188 0.0038719801 -0.05430649 0.09015096
-0.030299308 -0.004330768 -0.04098891 0.026347643 -0.021264458 -0.05150126 0.091020964 -0.041973356
0.059815206 -0.06567183 0.09776335 0.053000215 -0.07750548 0.026588952 -0.06661914 -0.077732645
-0.049784053 0.082831055 -0.16969405 0.119240254 -0.047637362 -0.12277141 -0.07288231 0.08697833
0.03832487 0.0455373 -0.10673856 -0.035419796 0.077834524 -0.026511842 0.015369667 0.021351384
-0.016105026 0.08260626 -0.017124396 -0.06900203 0.09254769 -0.061052088 0.11604889 -0.02327054
-0.097692676 0.027548071 -0.02614793 0.102684796 -0.0070083085 -0.025173254 0.070068225 0.058724876
0.01574145 0.024577908 0.010885805 -0.049785938 0.046868715 -0.058216292 -0.101514556 -0.1460444
0.013752742 0.1348268 0.03956946 -0.011922844 -0.07794197 -0.038241003 0.0031429683 0.038111452
0.070237376 -0.044299133 0.056832336 -0.02634106 -0.024768652 0.062831365 -0.0761436 -0.029352507
-0.044900347 -0.054959647 -0.020860337 0.038173523 0.007503938 -0.034819867 -0.025673866 -0.011385795
-0.12032975 -0.044728417 -0.012106976 0.09473045 -0.06647917 0.013118958 0.08532707 -0.10576761
-0.06222139 0.08506946 0.089298815 0.037999302 0.058164384 0.00017912514 -0.064103276 -0.007276007
0.029152501 -0.04883033 0.037788462 0.027244331 0.095156156 0.104726486 -0.025450775 0.048726033
0.05763296 -0.0647437 0.055168834 -0.004731169 0.033390388 -0.05285521 -0.05097165 -0.13550393

output_layer.bias f4 [9]
00000000: 7200 25bd e621 713c a25a 5c3d fd97 8b3d
00000010: 05e3 103d 8b24 f4bd 3705 ce3d 4160 c6bd
00000020: d50b c63f
-0.040283628 0.014717555 0.05379737 0.06816099 0.035372753 -0.119210325 0.100595884 -0.09686328
1.5472361
